best_lfcc_lcnn.pt (torch, 784885 bytes, 10 tensors)

block1.0.conv.weight f4 [32, 1, 5, 5]
00000000: 34c0 083e a4f6 2c3e 6067 28bd 43e1 233e
00000010: b119 21bc b6f7 20bc 3167 f9bd 498b bd3d
00000020: 16f3 1a3e 6b72 e9bd c3c7 163e 91dc 953c
00000030: a2f6 003e f4a6 b63c 2518 c53d 7040 22bd
00000040: e603 093e 0042 273c e404 48bd 27bb 8d3d
00000050: f73c e6bd 65e3 e7bd 91fe ddbd 9aa0 853d
00000060: ccd1 38be c6d4 90bc d2d6 21bc 8c48 3abd
00000070: 5fa1 9e3d 2e55 29be cf92 4b3e 9a97 45be
00000080: 95fd 383e 4536 4b3d 5609 a5bd 7e35 033e
00000090: 92a0 07bd 37cd 333e dacb d83c fdf1 8fbd
000000a0: dda8 893d d205 51bd 4e85 d23d 72f9 423e
000000b0: 9626 e83d 5182 b4bd adee 123e f8b7 113d
000000c0: 22e9 043e 6580 b8bd 437c 15be 4765 98bc
000000d0: 5fc4 b4bd e88d 063e 3664 ac3d 55a7 e53d
000000e0: 485f aa3d 540f 0d3d cade ff3d 4064 22be
000000f0: 22fc d1bc a51e 20be 9fff 703d 6295 71bd
00000100: 9900 d43d f602 c2bd db8e 063e 35c6 05be
00000110: 5a16 b8bd f9ab c8bd be58 023e 98bb d2bc
00000120: 059b 0b3e 9b28 01be 7c4e 35be f5b3 1fbe
00000130: 08ab 1cbe 4723 b03d 85d5 6d3d 601b 243e
00000140: c96d b8bd eba0 13be 49ea 0a3e ce46 8fbd
00000150: 7449 283e 9b93 8fbc 887e 143e 3ecc 04be
00000160: 169e 93bd 5e35 b63d 3bd9 653d c1c4 babc
00000170: 941e 0b3e d396 183e 629c 37be f4ec 64bd
00000180: 5928 633e 4b8a 16bd b7cf a7bc 2d8b 49be
00000190: dd7e d4bd f73d 053d 92ea 3bbd 403c dabd
000001a0: 40e0 7a3c 46ae 0dbe 09a4 3dbe e0d4 02be
000001b0: d3f1 13be 9041 eebd 1bb2 513e 4695 443d
000001c0: ea57 a13d 0e26 07be ac26 a4bd 930e d2bd
000001d0: a204 843c 3527 2bbe 1e59 4dbd 5fed 95bd
000001e0: ca92 e4bc 9b80 b5bd 6b2e 55bc 2e84 efbd
000001f0: 300c e7bd 1541 37bd d1cb e03b 8e18 0abe
00000200: 9bc1 693e 9817 c43c 5c6d 643e 12df c23d
00000210: b1a8 30be d094 3f3e b5fe 9bbc 846f 0c3d
00000220: 6b0a cebd 5a3b 16be 0b96 083e 99f6 84bb
00000230: 3305 103e 08ae f7bd a4fc 563e 5c74 d3bd
00000240: af6b 123b db0f 6d3d 2042 e13d 87ef 3e3e
00000250: f31f 433e 1113 1cbe 8aed 1d3c 1611 14be
00000260: 1ec6 4dbd ab9e 0ebe 2771 073e e563 8cbe
00000270: 84b0 963c 2ed3 08bc 9e5e 013d 7425 83be
00000280: 3a59 2d3e ad7f a93c 7d25 0dbd cfe1 50be
00000290: caa0 a13d a552 47bd a8b8 eebd 64fd f03d
000002a0: 5da0 1f3d 6d6a b4bd 590b 38be cae3 5fbd
000002b0: 38ef a53c 8987 07be b75a 01be f302 89bd
000002c0: 83cb 13be 86d4 793d bbd0 1e3e 2457 39be
000002d0: b6d1 14bc f986 873d 49c5 52bc 53f5 c2bd
000002e0: ac92 bb3d cfae 763d 9c5a e33c f9dd 90bd
000002f0: fe23 91bd f712 08bb f537 4bbd 26f7 bebd
00000300: 73cd c33d 7176 053e 555e 9ebd 4720 fabc
00000310: 9ee3 fa3c 6e34 42bd 01fc 6bbc 9dc0 273d
00000320: 9d4e 12be 9e5c 8cbd 15da 213e c13b 953d
00000330: 1b4e 39bd 023a 5dbe 4803 3cbe 59dd 82be
00000340: ddb9 f6bd 3ad5 bfbc 7cee 0e3d b3d7 143d
00000350: 6585 11be 5e45 0bbe 06ab 12bd 0cc6 163e
00000360: e53c 66bd 5dd0 47bc 1e18 983d 35fb 00bc
00000370: 2d7a 82be 941b 2b3d 4b72 47be 11a4 2bbe
00000380: 010e 50be 4093 083e 3612 e43d f696 3b3d
00000390: cf9e 1fbe f5d3 36be 6880 33be 6b48 e73d
000003a0: 9777 ca3d d007 3a3e 7556 123e 24b4 5a3c
000003b0: 749b 72bd 0910 3abe 302e 43be 8d58 68be
000003c0: 463d 7a3d d0f0 cabd 5b8c 84bd 546d f5bd
000003d0: 3f53 b1bd 019e 5dbe 1ba1 01be 894d fa3c
000003e0: 16d5 45bd f020 ae3d 7459 1fbd b10c 20bd
000003f0: 0e10 5f3d 1069 b83c 4641 933d 72ab 22be
0.1335457 0.16890961 -0.04111421 0.160039 -0.009832785 -0.009824684 -0.12177885 0.09255082
0.15131792 -0.113987766 0.1472464 0.01829365 0.12594083 0.022296406 0.09623746 -0.039612234
0.13380393 0.010208607 -0.04883279 0.06920462 -0.11242097 -0.11322669 -0.1083957 0.06524773
-0.18048781 -0.017679583 -0.009877877 -0.045479342 0.07745623 -0.165364 0.19880222 -0.19296113
0.18065484 0.049612302 -0.08058421 0.12813374 -0.033112116 0.17558752 0.026464391 -0.070285775
0.06721661 -0.05103094 0.10279332 0.19040468 0.11335485 -0.088139184 0.1434886 0.035575837
0.12979558 -0.09008864 -0.14598183 -0.01860298 -0.08826517 0.1314007 0.08417551 0.11213557
0.08318955 0.034438446 0.124936655 -0.15858555 -0.025632922 -0.1563669 0.05883753 -0.058980353
0.103516765 -0.09473221 0.13140433 -0.13063891 -0.08988638 -0.09798426 0.12729165 -0.025724217
0.13633354 -0.12613146 -0.1770572 -0.15595992 -0.15299618 0.086004786 0.058064956 0.16026068
-0.09005315 -0.14416854 0.13565935 -0.06995927 0.1643427 -0.017526438 0.14501393 -0.12968537
-0.07207887 0.08896898 0.05611537 -0.022798898 0.13585883 0.14901285 -0.17930749 -0.05589004
0.2218336 -0.03675298 -0.020484788 -0.19681998 -0.1037576 0.032529797 -0.045878 -0.10656023
0.015312254 -0.13836011 -0.18519606 -0.12776518 -0.14447717 -0.11633599 0.20478098 0.04799392
0.078780964 -0.1319811 -0.080151886 -0.10256686 0.01611549 -0.16714175 -0.050133817 -0.073206656
-0.027902026 -0.0886242 -0.013011555 -0.11695133 -0.112816215 -0.0447398 0.0068602343 -0.1348593
0.22827761 0.023937032 0.22307342 0.095152035 -0.1725185 0.18709111 -0.019042352 0.034286037
-0.10060581 -0.14671078 0.13338487 -0.004057717 0.14064483 -0.12093741 0.20994812 -0.10324928
0.0022342016 0.05787645 0.109989405 0.1864606 0.19055156 -0.15241648 0.009639153 -0.14459643
-0.050237767 -0.13927715 0.13226758 -0.27419963 0.018394716 -0.00835113 0.031584375 -0.25614512
0.16928568 0.020690763 -0.03445958 -0.20398639 0.07891996 -0.0486628 -0.11656314 0.117670804
0.038971294 -0.088093616 -0.17973079 -0.054660596 0.02025567 -0.13235296 -0.12632261 -0.06690016
-0.14433102 0.060993694 0.15509312 -0.18099648 -0.009083202 0.06617541 -0.012864419 -0.09519448
0.09158835 0.060225304 0.027753167 -0.07073588 -0.07086943 -0.0020763257 -0.04961391 -0.093244836
0.09560671 0.13033463 -0.07732836 -0.03053297 0.030626114 -0.047413282 -0.014403344 0.040955175
-0.14287801 -0.06853603 0.15805848 0.07286788 -0.045240503 -0.2160416 -0.18360627 -0.255595
-0.12047169 -0.023417104 0.034895405 0.03633852 -0.14211042 -0.1360068 -0.035807632 0.14723986
-0.056210417 -0.012195674 0.07426475 -0.007872392 -0.25483838 0.041774347 -0.19477193 -0.16761805
-0.20317842 0.13337421 0.11136286 0.045798264 -0.15587924 -0.17854293 -0.17529452 0.112931095
0.09886091 0.18167043 0.14290793 0.013348613 -0.059230283 -0.1817018 -0.19060588 -0.2269003
0.06109359 -0.099092126 -0.06472083 -0.11983743 -0.08658456 -0.21642305 -0.12659113 0.03055455
-0.048298918 0.08502376 -0.03890367 -0.039074603 0.05445867 0.022511035 0.07190184 -0.15885714

block1.0.conv.bias f4 [32]
00000000: 5097 86bd 2577 9c3d 367d 4fbe 8e6c b53d
00000010: 7aeb a4bd ad11 2dbe 6374 f73c 53b4 7a3d
00000020: bd30 2c3e eb85 12be e8a1 0bbe 0fc8 353d
00000030: e1d2 7c3c 8310 c63d 8315 b43d d7be c4bd
00000040: 3953 bd3d 03a8 d63d 6642 3abd 8aa5 a43d
00000050: 2732 9c3d 8062 123e 07c8 0abe 5cb8 08be
00000060: 9b9a bfbd 6566 bc3c 0a33 a83d 76c6 11be
00000070: 8444 963d 3286 05be 60e2 d93d fb99 2bbd
-0.06571829 0.076399125 -0.20262608 0.08858596 -0.08052726 -0.16901274 0.030206865 0.061207127
0.16815467 -0.14308898 -0.13635981 0.044380244 0.015431137 0.09671118 0.087931655 -0.09606712
0.09244389 0.104812644 -0.04547348 0.080393866 0.07626753 0.14295387 -0.13552867 -0.13351578
-0.093556605 0.022998044 0.0821286 -0.14235863 0.07337287 -0.13039473 0.10638881 -0.041894894

block2.0.conv.weight f4 [64, 16, 3, 3]
00000000: 97d9 9cbd adc2 45bd 6df7 83bd 6764 013d
00000010: c6b7 80bd 9307 5abc 599d 973b 12e6 80bd
00000020: 6844 4e3c 0d3b 9fbd d449 55bd 22d9 79bd
00000030: 343a cabc 0932 14bd 3f2f 633c fa38 3bbc
00000040: ae3c 1f3d 2fdd 9a3d 1025 9f3c 7f33 4cbd
00000050: 354e c0bd c3bc 733c edc1 63bd fb18 8d3c
00000060: edab 273d 10d6 c73c bc7c 883d f164 b93d
00000070: 0da1 ce3c cc87 53bd 77d3 ad3d 2fc7 0ebd
00000080: 61ed 14bd 9572 973d 3b21 8d3d 2f31 ed3c
00000090: ac1e 0f3c acf1 a2bd 761b c6bc d6f7 b83d
000000a0: 2197 073d 2f92 b5bb a4da 3cbc 24c1 a0bc
000000b0: ac22 513d 24e4 363c 9c2b 763d 9d9e 3bbc
000000c0: 5800 103d c429 1b3d 8c5a 913c fd40 623d
000000d0: 3c96 5f3d 28fd a33d 6a23 6a3d 40bb e2bc
000000e0: 8b1a b4bd c9de ec3a 99ad a4bc 18ba 52bd
000000f0: b26e e5bc e91a c7bc 8ab4 2f3d 35a1 963c
00000100: e5cb 06bd 24fb 0bbd 5120 fdbc c194 23bd
00000110: e565 883d e373 083d 55b3 833d f91f 12bc
00000120: c3c8 be3c 8230 963c 7330 dabd 257c 463b
00000130: 67b6 38bc f082 8ebd 44ec a0bd aaf5 903d
00000140: 3870 5f3d c7b7 b23c 083c 713d c0db a2bd
00000150: 6cba b7bc 3be5 b53c 7bdd 2dbd c53b e1bc
00000160: 2adc cabd 1fb5 06bb 3d3f 07bd 3608 923c
00000170: ae25 ca3d 61d5 16bc c4b1 7fbc f2b6 883d
00000180: a941 56bc cc7e ff3b 5e83 bd3d d729 0bbd
00000190: e0a9 8fbd 6b1f 55bd a464 cbbc 3456 56bd
000001a0: 01f0 6ebd 87ec 023d b647 273c b47a 2dbd
000001b0: 4c6d 73bd 8e6f d0bc b3ef c1bc c3f3 ddbc
000001c0: 00df aebd 24ad 4b3c 347b 72bd 7b49 89bd
000001d0: f34d 9bbd 27aa 4d3d dad5 67bd e5f8 10bd
000001e0: b7b2 7b3d df6d f43c 3a4d 683c e655 94bd
000001f0: 3169 3cbd f782 39bd 82d7 953d 19fd 3c3b
00000200: d487 94bd 9bc3 be3b f4f8 7abd 84a3 b8bc
00000210: 9687 15bd 9469 963d ba0b d43c fa93 d93c
00000220: b12d 733d 2818 ad3c 69ba 8a3d 72c3 953d
00000230: a427 7b3d d419 7f3b 3dfc d33d 582c df3c
00000240: 6ff6 37bd e3e7 293d c0ce 6c3d 66b9 9e3d
00000250: 30cc a03c 55c1 0dbd de08 1c3d d042 8b3d
00000260: 48f5 aebd 0d26 3cbc cca8 5cbd f9db 763c
00000270: c4ad 153d 4714 8cbc b1d6 03bc 38d6 763d
00000280: 84ea 033c dccb 31bd 5609 883d a9e4 2abd
00000290: 54d9 34bc f03b e93b 9a95 5fba d5c3 98bd
000002a0: 8fbc 0d3d 5b35 2cbd f933 36bd 9952 403c
000002b0: 31d6 51bd 3872 35bd 9da5 05bd 9ab0 14bd
000002c0: 4b37 29bd 8371 96bc 9f22 bf3c d07b 85bd
000002d0: 4f99 81bd 9dc3 0abc c7b3 593b 011a 203d
000002e0: def6 83bd f8f6 b83c 0340 043d ed77 063d
000002f0: 0788 b5bd d46c 2abd 68dd acbd 575a 89bd
00000300: 7933 663d bde8 3c3a f237 443d cd10 18bd
00000310: f569 aa3c 7411 2dbd 3b88 d53c 2f8d 49bd
00000320: 6023 febc 43ca a2bd 8334 c8bb aecc 963d
00000330: 3d62 cb3c 4fc6 7bbd 7294 42bc bf06 80bc
00000340: d808 96bd 766e 703d fbde a4ba f346 783c
00000350: 06b3 12bd cc9b 16bd e362 8d3c 9548 063d
00000360: 30db 9c3b fa46 5dbd 911a 8b3d 8b17 03bd
00000370: 2e4b 8fbd 4fe5 5ebd b9e6 8a3d 0304 68bc
00000380: 04cf cbbc bb03 6cbd 89a7 29bd ba43 b2bd
00000390: 6981 a2bd 37fb 1f3d dd61 803d afd8 773d
000003a0: aed7 a2bd 4f34 e93c 6bbc 6dbd 7d14 2f3d
000003b0: 156e 593d 4b55 963d 63b4 8c3d 4f7a 783d
000003c0: 14c6 933c bd87 543d 266e 8dbc 85c0 ef3c
000003d0: b153 03bd f2a1 95bb 66b6 a8bd 4daf f5bc
000003e0: 6ae8 49bd b4e3 0fbd 060b 6dbd 7eee a4bd
000003f0: 4f5e 8c3b c7eb 543d d862 963d 5daf 463d
-0.076586895 -0.04828136 -0.06443677 0.03158989 -0.06285052 -0.01330747 0.0046269116 -0.062938824
0.0125895515 -0.07774935 -0.05207236 -0.06099809 -0.024685957 -0.03618053 0.013866245 -0.0114271585
0.038876228 0.07561719 0.019426852 -0.049853798 -0.09389917 0.014876547 -0.055604864 0.017223826
0.040935446 0.024394065 0.06664416 0.09052456 0.02522328 -0.051643178 0.08487599 -0.034857925
-0.036359195 0.07394902 0.06891104 0.028954117 0.00873534 -0.079562515 -0.024183016 0.09031646
0.033103112 -0.005541108 -0.011526737 -0.019623347 0.051058456 0.011162791 0.060100183 -0.011451391
0.035156578 0.037881628 0.017743371 0.05523776 0.054586634 0.0800727 0.05716268 -0.027677178
-0.08794125 0.0018071766 -0.020102309 -0.051447004 -0.028006885 -0.024304824 0.042896785 0.018387416
-0.032909293 -0.034175053 -0.030899199 -0.039936785 0.0666006 0.033313643 0.06430689 -0.008918756
0.02328909 0.018333677 -0.10653772 0.0030286398 -0.011273957 -0.06958568 -0.07857564 0.07078107
0.05455038 0.021816147 0.05889514 -0.0795207 -0.02242776 0.022204032 -0.04244755 -0.02749432
-0.09905274 -0.0020554734 -0.033019293 0.01782618 0.09870468 -0.009206147 -0.0156063475 0.06675519
-0.013077178 0.007797098 0.09253572 -0.03397545 -0.07014823 -0.052031916 -0.024828263 -0.052328303
-0.058334354 0.03196385 0.010209968 -0.042353347 -0.059430405 -0.025443818 -0.023673868 -0.027093774
-0.085386276 0.012431417 -0.059199527 -0.067034684 -0.07583227 0.050211098 -0.05660043 -0.035393614
0.061449733 0.029837547 0.0141785685 -0.07242946 -0.045998756 -0.045290913 0.073164955 0.0028837381
-0.0725247 0.005821658 -0.061272576 -0.022538908 -0.036506258 0.07344356 0.025884498 0.026559819
0.059369747 0.021129683 0.06773836 0.07312669 0.0613171 0.0038925307 0.10350845 0.027242824
-0.04491275 0.04148091 0.05781436 0.07750206 0.019628614 -0.034608204 0.038094394 0.06799853
-0.085428774 -0.011483681 -0.053871915 0.015067094 0.03654267 -0.017099513 -0.008046792 0.06026289
0.008051518 -0.043407306 0.06642406 -0.041721974 -0.011038143 0.007117741 -0.0008529067 -0.07459227
0.03460365 -0.04204307 -0.04448316 0.011738443 -0.05122966 -0.04429838 -0.032628644 -0.036301233
-0.041312497 -0.018364673 0.023331938 -0.06517756 -0.063280694 -0.008469489 0.0033218728 0.0390873
-0.064435706 0.022578701 0.03228761 0.032829214 -0.08863836 -0.041607693 -0.084406674 -0.06706684
0.056201432 0.00072063116 0.047904916 -0.037125397 0.020802477 -0.042252973 0.026065936 -0.04920691
-0.031022727 -0.079487346 -0.0061097755 0.07363258 0.024827117 -0.06146842 -0.011876212 -0.015628217
-0.073259056 0.058699094 -0.001257866 0.015153634 -0.03581526 -0.036769673 0.017259067 0.032784063
0.0047868714 -0.054022767 0.067921765 -0.032004874 -0.06996761 -0.054417904 0.06782288 -0.014161113
-0.024878986 -0.057620745 -0.04141954 -0.08704324 -0.07934839 0.039057937 0.06268666 0.06050938
-0.07951294 0.028467325 -0.058041018 0.04274415 0.053083498 0.07340487 0.068703435 0.060663518
0.018038787 0.051887263 -0.017264437 0.029266605 -0.032062236 -0.0045664245 -0.08237915 -0.029990816
-0.049293913 -0.035129264 -0.05787184 -0.08053301 0.0042837034 0.051982667 0.07343072 0.048507083

block2.0.conv.bias f4 [64]
00000000: 821b 97bd 3526 f0bc ae24 abbd 8d83 283c
00000010: 9844 62bd 823a d7bc 4708 babc 7022 21bd
00000020: ed75 3e3d 8e17 753d 0a9e c3bd b7b3 0a3d
00000030: 2d07 c33c 3608 f33c ee6c dabc 3f67 32bc
00000040: 6906 53bc 7a7c 4a3c 2710 fd3c 03c4 b33c
00000050: 684f 84bc 06ec afbd 051d 98bd 523a 8cbd
00000060: 831e bebd 6b14 753d 8763 2ebd b103 9ebd
00000070: f327 88bd a368 c63c 1daa 58bd ecea a3bd
00000080: b7e0 9fbd 1dd6 a6bc cef2 b0bc 6b27 cabd
00000090: 0753 8ebd 4b57 22bd a1b4 ec3b f0ec fd3c
000000a0: 3917 953c 1b5a 43bd 0388 53bd 1b31 e83c
000000b0: cab3 9dbc 2ebc 12bd eb64 43bd c819 acbb
000000c0: 2a07 c13b 027a 7a3d b5ab 663d 1744 edbc
000000d0: ebd0 85bc cc0a 9fbd 4728 5ebd eb05 6d3d
000000e0: b39d 90bc 43a2 43bd ffa5 433d cb60 ca3c
000000f0: d65d 92bb d744 8f3c f8b1 7d3c 7b72 81bd
-0.073782936 -0.029315094 -0.083566055 0.01028527 -0.055241197 -0.026273016 -0.022709025 -0.039339483
0.04649918 0.059836917 -0.09551628 0.033862796 0.023807133 0.029667001 -0.02666327 -0.010888874
-0.012879946 0.012358779 0.030891491 0.021944052 -0.016151145 -0.0858994 -0.0742741 -0.06847061
-0.092831634 0.059833925 -0.042575385 -0.07715548 -0.06648245 0.024219817 -0.052896608 -0.08003792
-0.07806533 -0.020365769 -0.021600153 -0.098708 -0.0694943 -0.03963403 0.007223681 0.03099677
0.01819955 -0.047693353 -0.051643383 0.028343728 -0.01925077 -0.035823993 -0.047703665 -0.005252097
0.0058907466 0.061151512 0.056316096 -0.028963132 -0.016334971 -0.07765731 -0.05423763 0.057866972
-0.017653322 -0.047762167 0.047765728 0.024704358 -0.0044667525 0.01748888 0.015484326 -0.063206635

block3.0.conv.weight f4 [128, 32, 3, 3]
00000000: c47a 3dbd 1500 833d edca 3b3d 9dd3 20bd
00000010: ff27 503d 5fd8 4abd 71a4 4c3d fae0 533d
00000020: f7cf 373d eead fb3c c48c ecbc 2f3c 9abc
00000030: 6a10 bb3c c51e fe3c ea38 703d c236 843c
00000040: 22a4 243d 28e7 dfbc 8a73 f0bb ceb9 263d
00000050: 3ae1 303c 22e5 603d d9c2 1dbd 4fff 03bd
00000060: 7507 ec3c d9fd 183c df40 1ebd 2862 0b3d
00000070: f423 8e3c 6517 003d 4673 c23c 5e09 c9bc
00000080: 84fb b6bc 25a8 a2bc 4b96 983d 48bf 293a
00000090: a7a3 813d 68b9 79bb 97ed e03c 5541 793d
000000a0: 2053 d8bc b542 4abd ae81 f33c c8ae aebc
000000b0: 6bac 4c3d 38f8 133d 3e49 5e3d e9d5 e83b
000000c0: 97e7 f8bc e864 32bd 523f dabc ccdd 6e3d
000000d0: 5239 17bc f0d7 d8ba 3d9d 85bc 0cf3 0abd
000000e0: f73b 373d b66e a7bc b1a6 10bd 15f6 423d
000000f0: 35f6 073d 4c7d f73c 9eee 1d3d 5fae 25bd
00000100: f24c 863c 6171 a9bc 1a1e 9eba 7852 b73c
00000110: f650 c8bc be29 653d c50d 63bb 37a0 073d
00000120: caed 2bbc 2cbe a7bd fff2 7abd 7489 88bd
00000130: ceed 63bc 18cf 6bbd 6115 b4bd cb4d 03bd
00000140: 2d58 b8bd 6d48 91bc 392d b0bc 9f46 3f3d
00000150: f45b 923d ce32 213d c006 83bc 9113 8c3d
00000160: 6813 a73d c62a 233c 41f4 713d fdd6 023d
00000170: 6ee6 c6bc 6cc7 aa39 bf54 01bd 8f88 0a3d
00000180: fcd1 6f3d 5302 f7bc 7f3c cc3a 3ad9 f3bb
00000190: 959a 093d 6d7a 43bd b512 83bc d109 66bc
000001a0: ef6c 30bd dfaf 1dbd cf51 f2bc 983b fbbc
000001b0: d1c9 013b 6881 c63c d9ca 323c 4ead 12bc
000001c0: d87c 573d 0ba0 6f3d e2ee 493c d6f2 013c
000001d0: c1e1 32bd 424c c7bc 30ea 9b3c 3582 323c
000001e0: f600 223d 17f2 cfbb 29c5 323c 471a 293d
000001f0: 82b0 ba3d e501 a53d 1178 b1bc 5e9f 803c
00000200: 2bf5 3c3c 236a 6e3c b59b 273d 980c bbbb
00000210: 880a e93b fd31 1cbd c02c a23a 0008 96bc
00000220: cb39 793d 7e90 63bb f787 1abb 7d22 76bc
00000230: 89d5 8a3d e848 253d 02d2 d83d ec3d bb3c
00000240: 7e9c 2f3d 70df 2cbc 9740 31bd fb82 533d
00000250: 8150 1cbd 3598 0bbd 4821 1a3d 97c5 623a
00000260: c187 b63b 7ba1 863d ce44 0dbd cfce d9bb
00000270: cf1c fa3c 040f 4fbb d847 053c 8a89 0b3c
00000280: 5958 b23c 2cd3 9b3d 4371 a339 654c 183d
00000290: f0b0 6a3d c8a8 583d c58d 0f3d 2517 453d
000002a0: d8f0 403b af09 b63c 86da dfbb e2b9 8fbd
000002b0: ee3a 0b3d ad45 94bd 1649 2fbd f855 e6bc
000002c0: eeb7 80bd 17bc 57bd ec25 19bd 1529 54bb
000002d0: 0260 84bd bdf2 5dbd 00e1 3cbd 1e11 59bd
000002e0: e545 803b b12c 08bc a55e 2b3c aed3 503d
000002f0: 7d00 e6bc 50cb afbc 9e12 ad3c 547b 623d
00000300: 6db4 be3c 0c3c 2c3b 44c2 a73c 6117 48bd
00000310: 56b1 dbbc e18d 66bc f64f 46bd 8e8f 28bd
00000320: a1af 23bd 1a7b 883c 4295 8b3c 6bd9 40bb
00000330: dd3d f2bb 66cd dd3b 213a 293d 7c6d 08bd
00000340: dc8b 653d 83d2 243d d4bd 25bc 9df3 583d
00000350: e894 1a3c 2773 183a 659f a43d 369a 393d
00000360: 9d81 d33c aa99 efbc f75c 83bd 2809 ff3c
00000370: 2edc 5cbc 8f3c 0d3c adef debc ea17 863c
00000380: 711a 7fbd 1d91 923c 784a 793d ed29 ac3a
00000390: 9617 803d dc91 073d 24f6 253d 15a5 b53d
000003a0: 20e0 883c 907c 823c a4ff 283d 7729 cabc
000003b0: f901 18bd bb8d 353d c88a 37bd bccc aebc
000003c0: 25da bc3c dcbe 8a3c 2e92 e2bc 3d8b 2abc
000003d0: 6427 303d c55b 03bd 98a7 1b3d d920 8aba
000003e0: 2858 8cbc 84f1 11bd 5224 a23b ac86 843d
000003f0: cf38 18bd cbfe 4bbd eea0 05bc ed4d 033d
-0.046259657 0.063965 0.045847822 -0.03926431 0.050819393 -0.049522754 0.04996151 0.051728226
0.044876065 0.030722585 -0.028875716 -0.018827526 0.022834975 0.031020531 0.058648027 0.016139392
0.04019559 -0.027331904 -0.007337992 0.04070454 0.010795886 0.054906018 -0.0385159 -0.032225903
0.02881215 0.009337866 -0.038636085 0.034029156 0.017351128 0.03127231 0.023736607 -0.0245406
-0.022336729 -0.019855568 0.07450541 0.00064753415 0.06330042 -0.0038104896 0.027457042 0.06085332
-0.026406825 -0.049380023 0.029724922 -0.021323577 0.049969118 0.03612539 0.054269068 0.007105578
-0.030383868 -0.043553263 -0.026641522 0.05831699 -0.009229975 -0.0016543847 -0.016310329 -0.033923194
0.04473492 -0.020438533 -0.03531522 0.047597963 0.033193786 0.030211113 0.03855764 -0.040449496
0.016394112 -0.020683946 -0.0012063414 0.022378191 -0.024452668 0.05594801 -0.0034645658 0.033111777
-0.010493705 -0.08190569 -0.061266895 -0.06666842 -0.0139116775 -0.057570547 -0.0879314 -0.03205661
-0.09001193 -0.01773473 -0.021505939 0.04669821 0.07146445 0.03935509 -0.01599443 0.068396695
0.08157998 0.009958928 0.05907083 0.03194331 -0.0242798 0.00032573508 -0.03157496 0.03382164
0.058549866 -0.030152475 0.0015581994 -0.007441667 0.033594687 -0.047724176 -0.016000131 -0.014040426
-0.043072637 -0.038497802 -0.029580025 -0.030668065 0.001980413 0.024231628 0.01091262 -0.008952452
0.052609295 0.05850224 0.0123250205 0.007931432 -0.043672327 -0.024328355 0.019032568 0.010895302
0.039551698 -0.006345998 0.010911264 0.041284826 0.091156974 0.08057002 -0.021663697 0.015700992
0.011533062 0.014551672 0.04091998 -0.0057082884 0.007111851 -0.03813361 0.0012372956 -0.018314362
0.06084613 -0.0034723575 -0.0023579577 -0.015022871 0.0677901 0.040352732 0.10586931 0.022856675
0.042873852 -0.0105513185 -0.04327449 0.051638585 -0.038162712 -0.034080703 0.037629396 0.0008650659
0.0055703823 0.06573769 -0.034489445 -0.006646968 0.030531315 -0.0031594643 0.008134805 0.008516679
0.021770643 0.07608637 0.0003117417 0.03718223 0.057297647 0.052895337 0.03504731 0.048117775
0.002944043 0.022221414 -0.00683147 -0.07017876 0.033991747 -0.07239852 -0.04279431 -0.028117165
-0.06285082 -0.05266961 -0.03738968 -0.003237312 -0.064636245 -0.05418657 -0.046113014 -0.05299484
0.003914582 -0.0083114365 0.010459577 0.050983123 -0.028076405 -0.021459252 0.021127041 0.055293396
0.023279393 0.0026280908 0.020478375 -0.04885042 -0.026817959 -0.0140719125 -0.0484161 -0.04115253
-0.039962415 0.016660262 0.017038945 -0.0029426466 -0.0073926286 0.00676887 0.0413152 -0.033307537
0.056041583 0.040239822 -0.010116059 0.052966703 0.009434916 0.0005815499 0.080382146 0.045313083
0.02581864 -0.029248077 -0.06414216 0.031132296 -0.013480229 0.008620395 -0.027213896 0.016368825
-0.062281076 0.017891461 0.060862035 0.0013135053 0.06254499 0.033098087 0.04051794 0.088693775
0.016708434 0.015928537 0.041259423 -0.024677975 -0.037111256 0.044324618 -0.044810086 -0.02133786
0.023053238 0.016936712 -0.027657595 -0.010409174 0.043006316 -0.03206994 0.038001627 -0.0010538354
-0.01713188 -0.035630718 0.0049481774 0.06470999 -0.037163552 -0.049803536 -0.008156044 0.032056738

block3.0.conv.bias f4 [128]
00000000: e309 25bc f208 2fbd 0456 cebc 329c 14bd
00000010: b16c d6bc 5e9d b0bc 8402 2c3d 8c31 1cbd
00000020: c362 26bd 34fb 29bd 3df1 a6bc 9a4b 02bd
00000030: 7479 c5bd 204c 2c3d 3aae 60bd 8e17 8b3b
00000040: 400f 283d 2089 eb3c 56ae 983c 304e 0d3d
00000050: af07 85bd 7703 72bd 68ba 79bd 95ce 2bbc
00000060: 2881 b73b f243 49bb ff27 21bd 0acf 0ebc
00000070: 61a2 48bb fa17 3c3d 8a2f 843c 6bf2 b3bc
00000080: e8c1 3bbd 37cc 71bd d81d b5bc 1ba0 983c
00000090: 61ac ccbc 1c6e 283c a6b3 41bc 6769 cebc
000000a0: 48b2 de3c e561 c63c a7cd e03c 278a 84bd
000000b0: 5ebb edbc 3c00 643d 11d0 f8bb de86 883d
000000c0: 120e bb3c b5ea 2f3c 42f3 51bd 308c 1c3d
000000d0: a77f 54bc aff6 a1bd 9cc8 4ebd f65c 50bb
000000e0: 24e1 1d3d d3c7 513d f498 06bd af57 033b
000000f0: 9fe1 bdbc 04fe debc 5256 26bc 9b59 803d
00000100: c41d 8bbd 904c 14bd 4d60 9abc 9a82 45bc
00000110: 001e a7bc dd7a 89bc 04f4 803b 5d60 a2bd
00000120: 11d2 50bc 46be 0fbc d02f 383d 4878 c23c
00000130: a656 ff3b fa11 05bd 2fc0 bfbd d1d7 55bd
00000140: cc4f 923c 0598 ea3b f654 aabd 9743 2bbc
00000150: 810f 82bc 82d7 b13c a846 083d 0d00 eabb
00000160: 9e7f c0bc d3f7 a63c d3ad 103c b3d8 71bd
00000170: b549 283d c155 70bc 09cc 6c3d e9ea 143d
00000180: 0cbd 63bd cfbf a23c d0e1 82bd a6a5 473d
00000190: f23a 6abc 7fbd fc3b e308 be3c a8d9 443d
000001a0: 804f 23bc 8304 dabb 49ea 95bd 0fa7 0f3d
000001b0: 0c81 293d c96f 4abd f266 22bc 03ee 65bd
000001c0: d472 0f3d cdf2 96bd c4f5 e5bd 8515 b9bc
000001d0: e747 643d bd48 bdbd 458d 92bc a0c5 aebd
000001e0: 6faa 17bc f0dd bc3a de2e 63bd 3fb1 b2bc
000001f0: f0a4 2a3d c1f2 48bd 1889 c9bc 77c6 75bc
-0.010073158 -0.04273314 -0.0251875 -0.036281772 -0.026174875 -0.021559414 0.041994587 -0.03813319
-0.04062153 -0.04149933 -0.020378703 -0.03181038 -0.09642306 0.042064786 -0.054853655 0.0042447513
0.04103017 0.02875191 0.018637817 0.034498394 -0.06495606 -0.059085336 -0.060968786 -0.010486265
0.0056001134 -0.0030710665 -0.039344784 -0.008716354 -0.0030614363 0.045921303 0.01613595 -0.02196618
-0.04583922 -0.059032645 -0.022108957 0.018631032 -0.02498454 0.010280158 -0.011822617 -0.025196744
0.02718462 0.024216602 0.027441813 -0.06471663 -0.029020008 0.055664286 -0.007593163 0.06666349
0.022833858 0.010737111 -0.05125738 0.03821963 -0.012969888 -0.07908379 -0.050484285 -0.003179369
0.03854479 0.051215958 -0.03286071 0.0020041277 -0.023178874 -0.027220733 -0.010152416 0.06267091
-0.06792787 -0.03620583 -0.018844748 -0.012055064 -0.020400047 -0.016782219 0.003935339 -0.07928536
-0.012745396 -0.008773392 0.044967473 0.023738995 0.0077923117 -0.032487847 -0.09362828 -0.05220777
0.017860316 0.0071592354 -0.08316986 -0.010453126 -0.015876533 0.021709207 0.033270508 -0.0071411193
-0.023498353 0.020381844 0.008830505 -0.05904455 0.041085918 -0.014668883 0.05781177 0.03635684
-0.05560021 0.019866852 -0.063907266 0.04874196 -0.01429628 0.0077130194 0.023197597 0.048059136
-0.009967685 -0.00665337 -0.07320077 0.03507143 0.041382834 -0.049423013 -0.009912239 -0.05613519
0.035021618 -0.07370529 -0.11228517 -0.02259327 0.055732634 -0.09242389 -0.017889628 -0.08533788
-0.009256943 0.0014409404 -0.055464618 -0.021813033 0.041661203 -0.049059633 -0.024601504 -0.015000931

block4.0.conv.weight f4 [256, 64, 3, 3]
00000000: 5ca0 cdbc 14f1 973c 19c4 dabc 4c6b d53c
00000010: 227a 09bb 6b3c 34bc 9a0e 11bd e304 01bb
00000020: 90e2 953c 67c5 023d 462a f9bc 9f95 b83b
00000030: d750 19bd 2157 1bbd b992 6dbb 49bc 10bd
00000040: 68fb 543c 20be 9b3c be9e a2bb 8ab6 1dbc
00000050: f3a4 aabc 0396 063c 97d9 0e3d d96d 28bd
00000060: d4d4 643c 3127 0d3d a8b7 113d 8778 04bd
00000070: ab06 bbbb ab77 1dbc 6cc3 053d 7774 ccbc
00000080: 2fc2 1abd 5550 5cbc b445 a83c c96f 183d
00000090: 18a5 f9bc d071 15bd 148d 153d eea9 dd3c
000000a0: 7e6c 673c 231a 8dbb e4e0 34bd 4d5a 303c
000000b0: af1a 38bd 5a25 3fbd ec2b 61bd d7ad 913b
000000c0: 556a 043d ba1c 843c d4b9 d53c 695b 363b
000000d0: 6d30 1e3c db1a 90bb 5cea d63b 71b4 173d
000000e0: 0905 ab3a 0d03 b0bc 9fb5 5bbc 3acb 0d3d
000000f0: c055 3b3c e10e d1bc 0ac1 32bd 0e3d e63b
00000100: 839d d0bc 329e ca3c 5836 3cbc cfae 40bc
00000110: 34cd a83c e798 38bd 09e3 b3bc 290f 043d
00000120: a7f0 343c 8c54 78bc 0af5 c8bb 944b ccbc
00000130: e803 31bd 0d11 1dbd 4b0c 09ba 7bcf b33c
00000140: 5935 14bd 9199 7d3c 94a0 073c 1448 b6bc
00000150: ebd4 4cbc bc46 1dbd b678 35bd 318b 5a3c
00000160: cade d0bb 964d c53c 4fc8 43bb 1f17 cebc
00000170: a4b0 18bd 2b8f 25bd 542e 0cbd 96d9 25bc
00000180: cb02 053a 6027 f7bc 1310 c3bc 940f d43c
00000190: d308 4f3c 6a18 e3bb e533 753b be7c d33c
000001a0: ed92 f8bc 4026 1abd 0891 d63c fe5e 873b
000001b0: 1239 5e3c 9aa5 76bc 02a6 87bd df2d 0bbd
000001c0: 04e2 863b 8c7a babc 7088 25bc 557c b13c
000001d0: d25d 14bd ab9c 8bbc 6343 3bbc 4730 533c
000001e0: c08a 8a3c 24d2 d1bc 8ca7 cebc dd98 fdbb
000001f0: 2683 b5bc 7d11 84bc 036f 68bc 6a33 3fbc
00000200: 50e0 95b9 c325 c23c 8012 1bbd a88f 19bd
00000210: 11bd 28bd 8c7e 00bd 6ec9 c03b 90ac 13bc
00000220: 7ddd 1ebd 7c46 21bd 0157 afbc cc12 87bc
00000230: 0905 d4bb c451 23bd adc8 a2bc 1785 48bc
00000240: 4ca2 e1bb 8bf1 aabb c530 36bd 0019 c33a
00000250: 6454 013d 9cd7 c9bb ca28 25bd f5e8 493c
00000260: 407a 0dbd f44e 7bbc 677f fb3c 9d53 f3bb
00000270: 9a25 29bd 308c f5bb 7407 083b ddd9 dd3c
00000280: b390 20bd 46e2 0bbd f3cf 49bb 7db4 c03c
00000290: 08d2 25bc fe2f 10bd 0431 d63c 804e fcbc
000002a0: cdab 073d 18f7 d3ba 7e38 cf3c 313e 42bc
000002b0: 9b5c 28bd a84c 0abd d320 27bd 30a1 97bc
000002c0: 98bb b8bc 6f40 08bd a287 0c3d ca64 febc
000002d0: eb8a 983c b4ce 103d 719c 303d 0a83 583c
000002e0: 775a 28bd 4d6a d5bc 2195 cb3b 640a 4b3c
000002f0: 87bf a13b e071 43bd ad48 73bc 8c39 81bc
00000300: f1f3 18bd c5bc e8bb 5d5e c9bc ab6a 1dbd
00000310: 4c77 ca3c 2b23 12bd 63e0 efbb 90ad 27bb
00000320: fe82 d2bb 0f31 09bd 2c7f 2d3b dffa b4bc
00000330: 4ede d43b 19fc 25bd 6ea5 943a 630f c13c
00000340: 830a aebc 904e 233d 605b 0b3c e69f 9a3b
00000350: 4912 b13c 66f1 6d3c 377d e1bc 89fc 013d
00000360: c6e0 153d 72b3 0fbd ebf0 2d3b f0f0 103b
00000370: 45d6 f33c e724 bdbb 835a ff3c 62cb 263d
00000380: 0d12 c43c f8a8 01bd 6775 94bc 2836 96bc
00000390: a79c 88bc 49bd 0a3d b12c 97bc 9e31 a13c
000003a0: aa2d 503c 8221 30bd 504d ffbc c96b 31bc
000003b0: d3ee 0fbd f367 4a3c 0d54 ffbc ffed 3cbd
000003c0: 86cd b83c 6626 f43c 1355 e13c 2f02 f43b
000003d0: 878a 0b3c 6851 093d 0ac2 6bbc d577 4a3b
000003e0: f35f 34bc f7c5 e13c 0ef5 20bd e918 963c
000003f0: 3ee6 e0bb 749e eabc 511a d93c c001 d03b
-0.02510088 0.018547572 -0.026704835 0.02605214 -0.0020977338 -0.011000733 -0.035414316 -0.001968675
0.01829651 0.03192654 -0.030415665 0.0056330706 -0.03743061 -0.03792489 -0.0036250784 -0.035335813
0.012999393 0.019011557 -0.004962771 -0.00962604 -0.020830607 0.0082144765 0.03487548 -0.041120384
0.013966758 0.034461204 0.03557554 -0.032341506 -0.005707582 -0.009611051 0.032657072 -0.024957879
-0.037782844 -0.013446887 0.02054105 0.03721598 -0.03047423 -0.036485493 0.036511496 0.027058568
0.014124988 -0.0043060943 -0.044159785 0.010763717 -0.044947322 -0.04666648 -0.054973528 0.004445772
0.03232797 0.01612698 0.026089586 0.002782548 0.0096551 -0.0043977327 0.0065586995 0.037037317
0.0013047765 -0.02148583 -0.013410001 0.03461764 0.011434019 -0.02551979 -0.043641128 0.0070263213
-0.025465732 0.024733637 -0.011487566 -0.011760428 0.020605661 -0.045067694 -0.021958845 0.03224102
0.011043704 -0.015156876 -0.0061327266 -0.024938382 -0.043216616 -0.03834634 -0.0005227967 0.02194952
-0.03618369 0.015478508 0.008278031 -0.022251166 -0.0125019355 -0.038397536 -0.044304572 0.01333885
-0.006374215 0.024084847 -0.0029874032 -0.02515751 -0.037277833 -0.04041974 -0.03422387 -0.010122677
0.00050739635 -0.030170143 -0.023811376 0.025886334 0.012636381 -0.0069304006 0.0037414965 0.025816318
-0.030343497 -0.037634134 0.026192203 0.004131197 0.013563411 -0.015054131 -0.0662346 -0.033979293
0.0041162986 -0.022763513 -0.01010333 0.021665731 -0.036222287 -0.017042479 -0.01142964 0.012889928
0.016911864 -0.025612898 -0.025226377 -0.00773917 -0.022157263 -0.01612162 -0.0141866235 -0.011669973
-0.0002858662 0.023699647 -0.03785944 -0.037490517 -0.041195933 -0.031370685 0.0058833873 -0.00901331
-0.038785446 -0.03937386 -0.021403791 -0.016488455 -0.006470327 -0.0398729 -0.01987108 -0.012238762
-0.0068858024 -0.0052167824 -0.044480104 0.001488477 0.03157462 -0.006159736 -0.040322103 0.012323608
-0.034540415 -0.015338648 0.030700399 -0.007425739 -0.041295625 -0.0074935183 0.0020756396 0.027081424
-0.039200496 -0.034151338 -0.0030794113 0.023523564 -0.010120876 -0.03520202 0.02614642 -0.03079915
0.033122826 -0.0016171662 0.025295492 -0.011855648 -0.04110394 -0.03376451 -0.040802788 -0.018509477
-0.02255039 -0.033264574 0.034309037 -0.03105392 0.018620929 0.035353377 0.043117944 0.013214836
-0.0411019 -0.026051665 0.006212846 0.012392614 0.004936162 -0.04771602 -0.01484887 -0.01577451
-0.037342016 -0.007102581 -0.024581129 -0.038431805 0.024715088 -0.03567807 -0.00732045 -0.002558563
-0.006424307 -0.03349405 0.0026473505 -0.02209228 0.0064962273 -0.040523622 0.0011340806 0.023566907
-0.021245247 0.039869845 0.008505672 0.0047187684 0.021615164 0.014522886 -0.027525527 0.031734977
0.036591314 -0.03508324 0.0026541303 0.0022116266 0.029765258 -0.0057722214 0.031171089 0.040721305
0.023934389 -0.03165528 -0.018122388 -0.01833637 -0.01667626 0.033871923 -0.018453928 0.01967698
0.0127062 -0.043000706 -0.031164795 -0.010828921 -0.03513987 0.012353885 -0.031168008 -0.04612541
0.022558939 0.029803466 0.027506387 0.0074465494 0.008516914 0.0335249 -0.014389524 0.003089418
-0.011009204 0.027560217 -0.039296202 0.018322425 -0.0068633845 -0.02864001 0.026501806 0.006347865

block4.0.conv.bias f4 [256]
00000000: 0835 103d 511b eebc 5ad2 19bd 1ce8 943c
00000010: d706 83bc 991d b1bc e6af 10bd 5284 373d
00000020: 87ba 85bc e8ac e9bc 6cf3 a4bc 3af1 edbc
00000030: 3b60 5b3c 3cef 393c 21e0 7dbc fe6f 58bd
00000040: 0cbb 6c3c 82cd 8839 50a1 b53c bc35 babc
00000050: d791 fbbc 21f9 aa3c b638 2fbd 2737 41bb
00000060: 5d4c 853c dd76 9bbc a048 143d e757 fcba
00000070: 57c0 103d 5e1c 82bb 4fb3 003d 9c98 2dbd
00000080: 8537 5fbd 8f57 cf3c 839f c63c 6d45 893b
00000090: deaf 393d 06cf 223d b24b 013d e6aa 313c
000000a0: 6f38 423d ddfe 2a3c 6f75 cfbc 0744 193d
000000b0: 71cd 3dbc 9765 1fbd 2b30 f7bb ef62 8ebc
000000c0: ade3 09bd 6aba be3c f2cc 513d d0c0 08bd
000000d0: fbfc c43c 4cfe 0bbd ed25 543d 3285 e23b
000000e0: 9d63 743d 6110 3ebd 1964 f13b ace7 873b
000000f0: 1aa9 f6bc 01fb 12bd f427 26bd 8615 083d
00000100: 63d1 163b badb 073d 8463 16bd 2998 3dbc
00000110: 47a4 f1bc e2bb c53b 3020 2d3c 0a14 e9bc
00000120: 26db 103d 4021 66bd 5c80 0bbd 8f80 123d
00000130: 4325 8fbc f10a 693c 15a0 f93c 7946 6f3b
00000140: e02e 2ebd 9ec2 1c3b 6f40 893d 85b0 03bd
00000150: 6189 d73c f1fd f63c 5f40 1a3d eed3 91bc
00000160: a201 1bbc 8cfd f13c b964 42ba 0316 093c
00000170: a9b7 013d e6bc 78bd 444e b33c 5b89 11bc
00000180: f19e e63b 71c4 5f3d 1b12 10bc ec5d 373d
00000190: 5e06 c13c 9aaf 33bd 772c c8bc e949 313d
000001a0: d4cc 29bd 5521 8fbd df89 ab3c 5d55 da3c
000001b0: 0f11 103d 0697 593c ede3 0b3d 8938 33bb
000001c0: 4fd9 37bd a0cf 21bd a09f 7abb 8af9 1bbd
000001d0: 6b39 f0bc f432 b2bc f19c 82bc d574 19bd
000001e0: 8c72 b73c d5a5 1c3d 0d71 df3c af9a 4bbc
000001f0: 2634 b2bb 28aa 0d37 b953 bf3c 36b5 5a3c
00000200: de00 583c 42a2 493c 3b0f e2bc 3389 8e3c
00000210: 3dd4 bb3b 04eb d4bc c3b6 493c 2919 543c
00000220: 349c 3b3d d83e a03c ad0f 013d aea7 06bd
00000230: a464 14bb 0b6b 02bc ab0b d4ba b611 583c
00000240: 442b cabc b7a7 313c dc81 2d3c 92a1 58bd
00000250: af05 e83c d029 26bd 3802 b4bc 6293 20bd
00000260: ae99 e0bb 0e7c 4ebd 0a47 b03c 4e04 5ebc
00000270: fb8c ec3c 4dc2 53bb 7d4c a43c 81cb e5bb
00000280: 1aab 0fbd df5d 09bd f4ad 0d3d b5b8 583a
00000290: f827 04bc b16d dfbc d6ac 263d 40b0 f43c
000002a0: d360 f93c b58e 2cbb c345 46bc 7b4b b8bc
000002b0: 06ac 39bc 5c50 d3bc 8730 223d 09dc e73c
000002c0: da92 163d 9335 493c 87e8 293c 1163 dfbc
000002d0: 3f37 8eba f246 78ba 5bcd d3bb a816 003d
000002e0: 7503 23bd 9e2f 2abd c237 08bd f357 35bd
000002f0: 4d06 9bbc cb01 21bd a0e0 a83a ba9f 47bc
00000300: 2c37 7dbc 960b 573c fa00 ff3c 7467 fdbc
00000310: bf71 93bc 9444 1cbd b018 993c 21e7 bbbc
00000320: 0ae7 053c 9222 05bc 7111 203c 9c38 733c
00000330: 826c 9abc e370 f93c c2c5 373d 068f 523d
00000340: 278c 42bc 2af8 1bbd 4298 323b 7955 73bc
00000350: 7d9b 49bc cbe3 3bbc 2805 e63c af31 f5bc
00000360: 75bf e0bc fd54 0c3d a7ed 1e3d 546f 9a3c
00000370: 3e80 9bbc 8e77 0ebd b104 85bc 092f a73b
00000380: f171 f03c d3ad 4f3b 1221 893c 77f4 203d
00000390: ceec 07bc 090d 0f3c aa1d 073b 6026 2d3c
000003a0: 701e 46bc cf8d b7bc 1721 cf3b 2dc6 85bc
000003b0: 3ea1 203d dcbe 5d3c 9584 d8bc 87c3 c53b
000003c0: 56a1 1abd 07f7 c9bc 9a37 293d 9f27 693c
000003d0: fae5 9b3c 1433 39bc 6644 50bd aaf7 02bd
000003e0: 551e 85bc 58a4 53bc a9eb 2c3d f70b 07bc
000003f0: cc14 a63c 803e 29bd 8324 b0bb bfe9 cfbc
0.035206825 -0.02906576 -0.037554123 0.018177085 -0.015994472 -0.021620559 -0.035324 0.044803925
-0.016324295 -0.028524831 -0.020135604 -0.02904569 0.013389642 0.011348542 -0.015495331 -0.05284118
0.014448892 0.00026093057 0.022171646 -0.0227307 -0.03070919 0.020870747 -0.042778693 -0.0029482336
0.016271764 -0.018977577 0.036202073 -0.0019252271 0.03533968 -0.003970667 0.031421002 -0.042381868
-0.054496307 0.025310306 0.024245983 0.0041891844 0.045333736 0.039748214 0.03156633 0.010843968
0.0474171 0.010436741 -0.025324551 0.03741839 -0.011584626 -0.038915243 -0.007543584 -0.01738116
-0.033664394 0.023282249 0.05122084 -0.033387005 0.024046412 -0.034178063 0.05179398 0.006912851
0.05966531 -0.04640234 0.007366669 0.0041474905 -0.03010993 -0.035883907 -0.040565446 0.03322365
0.0023012988 0.033168532 -0.036716 -0.011571922 -0.029497279 0.0060343603 0.010566756 -0.028451938
0.035365246 -0.056184053 -0.03405796 0.035767134 -0.017473822 0.0142238 0.03047184 0.003651051
-0.042525172 0.0023919712 0.06701743 -0.032150764 0.026310625 0.030150386 0.037659045 -0.017801251
-0.0094608385 0.029539846 -0.00074155215 0.008367064 0.031669293 -0.060727023 0.021887906 -0.008882846
0.0070379903 0.0546307 -0.008793379 0.044767305 0.023562606 -0.04386864 -0.024435265 0.043283377
-0.041455105 -0.069887795 0.020939765 0.026652033 0.03517252 0.013280636 0.034152914 -0.002734693
-0.044884976 -0.039504647 -0.0038242117 -0.038079776 -0.029324254 -0.021752812 -0.015943976 -0.037464935
0.022393487 0.038244087 0.027275587 -0.012427016 -0.0054383455 8.4438725e-06 0.023355352 0.013348868
0.0131838005 0.012306752 -0.027595153 0.017399406 0.005732088 -0.02599097 0.01231164 0.012945452
0.045803264 0.019561216 0.03150909 -0.032874756 -0.0022642994 -0.007960091 -0.0016177794 0.013187816
-0.024678834 0.010843209 0.010590043 -0.05288846 0.028323023 -0.04056722 -0.021973714 -0.039203055
-0.0068542575 -0.050411277 0.021518249 -0.013550831 0.028875818 -0.0032311857 0.020056004 -0.007012785
-0.035075285 -0.033536788 0.034589723 0.00082672696 -0.00806617 -0.027273985 0.040692173 0.029869199
0.030441677 -0.0026330177 -0.012101593 -0.02249693 -0.0113325175 -0.025795154 0.03959706 0.028303163
0.036761142 0.0122808395 0.01037038 -0.027268918 -0.0010850205 -0.0009471021 -0.0064636893 0.031271607
-0.03979822 -0.041549318 -0.0332563 -0.044273328 -0.018923903 -0.03930835 0.0012884326 -0.012184078
-0.0154550485 0.013125321 0.031128395 -0.03093312 -0.017998574 -0.03815134 0.01868853 -0.02293736
0.00817276 -0.008125918 0.009769783 0.01484504 -0.018850569 0.030449336 0.04486633 0.05140593
-0.011874235 -0.038078465 0.0027251397 -0.014851921 -0.012305138 -0.011467884 0.02807863 -0.029930918
-0.027435044 0.03426074 0.03880086 0.018851914 -0.01898205 -0.034781985 -0.016237589 0.0051020426
0.029351206 0.00316893 0.016739402 0.03929564 -0.008296205 0.008731135 0.0020617046 0.010568231
-0.012092218 -0.022406487 0.0063210833 -0.01632985 0.039216273 0.013534274 -0.026430408 0.0060352716
-0.03775152 -0.024653925 0.04131279 0.014230638 0.01903056 -0.011303682 -0.05084648 -0.031974472
-0.016249815 -0.012917601 0.04221693 -0.008242599 0.020273589 -0.04131937 -0.0053754463 -0.025380014

fc.weight f4 [2, 128]
00000000: 0dc5 87bc d61d f23c dd36 983d 09a4 c13a
00000010: c2cc 65bc 84e0 7fbd 0db0 79bd 9714 073d
00000020: 7bfe 96bd 222c d1bd 001a 74bd cfb8 00bd
00000030: 1c96 573d d33e 2fbd 1a58 2cbd cb09 a33d
00000040: 4d82 723d 6951 a43d 944b 13bd 168e 2fbd
00000050: af35 363d e7d3 963b 8c8b 8b3d d116 7d3d
00000060: 5d11 d73c 36e4 753d 3b92 8ebd 38e3 2abd
00000070: 846f b5bd da64 d5bc 7f9e 17bc 9596 353d
00000080: bbca 673d fd37 67bd 1cd6 22bd ca27 10bd
00000090: 5a3e 9cbc 9982 81bd 894b f93c e1a7 b53d
000000a0: 583f 53bd d322 233d 8d23 903d ee4d 593c
000000b0: e12b 7fbd 1071 abbd 8629 9b39 8a5c c43d
000000c0: 0625 3cbd 0e26 81bd 9134 453d 56f5 a23c
000000d0: d57b 073d a40b 5c3d c978 97bc 635d 3d3b
000000e0: 3e8a b3bd 1d72 c03d 189b 9f3d d7cb c33c
000000f0: 7a7d 743d e7f0 3abd 8f8d 14bd 5de1 a63b
00000100: 4636 7d3d e25c 38bd 096c fc3c a0d7 173d
00000110: 594f 69bc da08 f53c dbde 0cbc 2961 a23d
00000120: c469 c4bd 5c00 d73c 9e66 b739 96dc 1cbd
00000130: 8e7c 263d 1c07 253c 741e 92bd fb65 b03c
00000140: 7d35 19bd 501a 2bbd c631 a5bd 448c 75bd
00000150: f33e 6cbd 77a1 073d 6db7 9abd fce0 4b3d
00000160: bd43 52bd b60d 3bbd d520 ac3c 62cf 373d
00000170: 3599 293b 945b 83bd d164 4c3d aaa9 113d
00000180: b7c3 463d c720 31bc 75aa 7cbd f180 02bc
00000190: 307b 1a3d 4f25 d63b be4d 61bc a46a a4bd
000001a0: ab21 abbb 4be3 843d 7a3b b93c d9cc a2bd
000001b0: 8bb0 bf3c 92e8 67bc e4fb 8d3d 9cfb 4f3d
000001c0: ef2b 243d 7e2d 713c 0ebd 33bd d6e6 863c
000001d0: b8d7 8cbd 149a 8f3d bf6b 9dbd 05c7 72bd
000001e0: 3e0c 7abd a435 61bd 5f15 b6bd 17e3 babb
000001f0: fa1f 45bb d732 423d e275 f53c 51d6 343d
00000200: b21f 8fbc 4b84 14bd 4e32 0ebd 9226 ca3c
00000210: 219c 83bd 0fdb c93c beaa c7bc 77f1 653d
00000220: 45a6 3ebd 89ff 7c3c 6957 d1ba 0f6d 62bc
00000230: 2929 89bd cab4 a73d d511 c13c e0c3 febc
00000240: b6d2 6b3c 7c5b 87bd e74f ffbc 7378 9b3b
00000250: f580 9e3c 09ea 8cbc ac69 92bd 1e4a 3e3c
00000260: 193b 193d 2cad 6e3d 445b 64bd 0539 7cbc
00000270: a25b 93bd 9f3f fb3c 3ab8 cbbb 1e05 e63c
00000280: 322b 7a3d 213c 853d bd42 ec3c 2e50 8ebc
00000290: bac4 e4bb 0fa7 ab3b 9d5e 1b3d 20a2 b43c
000002a0: cefb 3f3d 1e04 8cbd 4af0 ac3c dcc4 a43d
000002b0: 1f46 3bbd bfd9 a9bd 1f09 1c3c 140b b1bd
000002c0: c351 503d 71c3 36bd 6e48 8e3d 2bd3 a73c
000002d0: 86eb 2ebb 2fbe 2b3d ab6f 7d3d 8a41 383d
000002e0: b2bf ac3d 66e0 893c 841a 1bbd 7810 5dbd
000002f0: aace 3bbd 8771 4bbd 13cb 2ebd 8705 7f3d
00000300: 8e76 163c 43b8 79bc a494 273d e20e 003d
00000310: 6662 9b3c dd67 64bd d4b0 acbd a804 d3bc
00000320: 0434 65bd f8c9 b23c 11ec 6a3c e139 acbc
00000330: d051 343d 0093 a03c 414a 883d 91e2 293d
00000340: b759 8cbd 3824 88bb 1f27 a83c 1888 3cbd
00000350: 87fd 3dbd 382b d53c 8129 9ebc af25 163d
00000360: ece5 3abc 4ea3 853c a21c b53d 0e6b 143b
00000370: 2065 e83c 633c 4abd 0130 fbba 512e 1dbd
00000380: 61fc 8f3d 46dd 5a3d a936 1dbd 2aaf c33b
00000390: e192 643d 9fcf 7b3b d6ff a43d b90f aa3d
000003a0: e8cd e53b 309c 463d 9ef6 9dbc df78 e73b
000003b0: b4ec b03c 1b1d 8dbc a162 0d3d 1d47 393d
000003c0: 5648 15bd d7bb 8abd a3f1 0f3c f5d4 3c3d
000003d0: 784d 103c 8499 5f3d 9f0f c0bd 1811 1ebd
000003e0: fa9f db3c 5d55 723d 7968 8c3d 261b 013d
000003f0: be4a e13c f18b 33bd 9296 773d 9509 283d
-0.016573453 0.029555243 0.07432339 0.0014773618 -0.014025869 -0.062469974 -0.06095891 0.03297862
-0.07372757 -0.10213496 -0.059595108 -0.031426247 0.05263339 -0.042784523 -0.042076208 0.07960852
0.059206296 0.0802334 -0.03596075 -0.042860113 0.04448479 0.0046028974 0.06813726 0.061789338
0.026253397 0.060032092 -0.06961485 -0.0417206 -0.088591605 -0.026049066 -0.009254097 0.04433306
0.056589823 -0.05644988 -0.03975497 -0.035194196 -0.0190727 -0.06323738 0.030431526 0.08869911
-0.05157408 0.039828133 0.07038031 0.013263209 -0.062297706 -0.08371174 0.0002959484 0.09587963
-0.045933746 -0.063060865 0.048145834 0.019892376 0.03307708 0.05372204 -0.018490212 0.0028894774
-0.08766602 0.093967654 0.07793254 0.02390091 0.059689976 -0.0456399 -0.036267813 0.0050927834
0.061819337 -0.045010455 0.030813234 0.03707087 -0.014240109 0.029911447 -0.008598055 0.07928688
-0.09590486 0.026245289 0.00034980936 -0.038296305 0.04064613 0.010072496 -0.07134715 0.021533003
-0.037404526 -0.04177314 -0.08066134 -0.05994822 -0.05767722 0.03311297 -0.07554517 0.04977511
-0.05133413 -0.045667373 0.02101175 0.04487551 0.0025878672 -0.064139515 0.049900834 0.035562195
0.048526492 -0.010811037 -0.061685998 -0.007965312 0.037715137 0.0065352092 -0.013751445 -0.080281526
-0.0052225194 0.06488665 0.022611368 -0.07949228 0.023399612 -0.01415457 0.0693281 0.050777063
0.04008096 0.014720319 -0.04388147 0.016467493 -0.068770826 0.0701181 -0.076865666 -0.05927183
-0.06104683 -0.054982796 -0.08890795 -0.0057033408 -0.0030078874 0.047411766 0.029963437 0.0441497
-0.017471168 -0.036258977 -0.034715943 0.024676595 -0.064262636 0.024640588 -0.024373408 0.056138482
-0.046545286 0.015441784 -0.0015971485 -0.013819947 -0.06697304 0.0818878 0.023568073 -0.03109926
0.014393499 -0.06609246 -0.03116603 0.0047445833 0.0193486 -0.01720144 -0.071490616 0.011614351
0.037409876 0.05827062 -0.0557511 -0.015394454 -0.07195212 0.030669985 -0.00621703 0.028078612
0.06107635 0.06505609 0.028840417 -0.017372217 -0.0069814594 0.005238421 0.037932027 0.022049963
0.046871 -0.06836723 0.021110673 0.080453604 -0.04572117 -0.08293485 0.009523659 -0.08644691
0.050859224 -0.04461998 0.069474086 0.020486435 -0.0026690676 0.04192942 0.061874073 0.044984378
0.084350005 0.016830634 -0.037867084 -0.053970784 -0.045851387 -0.049668815 -0.042674135 0.06226113
0.009183539 -0.015241685 0.04091324 0.031264193 0.018967818 -0.055763114 -0.08432165 -0.025759056
-0.05595781 0.021824822 0.014338509 -0.021023693 0.044023335 0.019601345 0.06654788 0.041475836
-0.06853049 -0.0041547082 0.020526467 -0.046028227 -0.04638436 0.026021585 -0.0193069 0.03665703
-0.011407357 0.016313221 0.08843352 0.0022646817 0.028368533 -0.049373996 -0.0019164087 -0.03837425
0.07030559 0.05343368 -0.038382206 0.005971809 0.055804137 0.0038423312 0.08056609 0.0830378
0.0070130713 0.048488796 -0.019282635 0.0070639695 0.021597244 -0.017225793 0.034517888 0.045233835
-0.036445938 -0.06774109 0.008785638 0.04610153 0.0088075325 0.054589763 -0.093779795 -0.03859052
0.026809681 0.05916344 0.06855864 0.03152003 0.02750146 -0.04383463 0.06044633 0.041024763

fc.bias f4 [2]
00000000: 19b3 06bd 3059 d53c
-0.032885645 0.026043504
