best_lfcc_lcnn.pt (torch, 784885 bytes, 10 tensors)

block1.0.conv.weight f4 [32, 1, 5, 5]
0.13620551 0.15602474 -0.05945352 0.17089447 -0.05874958 0.02354139 -0.12052856 0.10514257
0.16634098 -0.15900913 0.16857493 0.036317933 0.14546259 0.019680675 0.09403479 -0.034559425
0.1519482 0.031561635 -0.10005173 0.04911742 -0.11296293 -0.042625897 -0.09354536 0.12292685
-0.17512386 -0.08521798 -0.046086423 -0.112647906 0.029355865 -0.1908091 0.1879488 -0.15762551
0.15790947 0.04227347 -0.04052785 0.123042665 0.030972134 0.16057399 0.021583863 -0.060508534
0.059515666 -0.050260905 0.088685304 0.18194814 0.12334215 -0.08295567 0.120904244 0.03858487
0.10777666 -0.104020685 -0.17790459 -0.059106637 -0.13516225 0.17244017 0.074301526 0.09441155
0.0720613 0.011438499 0.15933667 -0.12259293 0.0058736643 -0.14106953 0.06923132 -0.047591627
0.08297229 -0.051528372 0.1689108 -0.10888951 -0.10340203 -0.10438121 0.17340834 0.063588925
0.20198396 -0.14395458 -0.1795387 -0.13525343 -0.11210221 0.10169541 0.09232025 0.17624155
-0.08491176 -0.11777041 0.12334696 -0.06484792 0.13697375 -0.020529479 0.13001347 -0.14449055
-0.08710524 0.078312084 0.06773957 -0.039029516 0.13710307 0.15448499 -0.122816 -0.08934398
0.2005417 -0.048765123 -0.055013113 -0.17661865 -0.11748478 0.04774703 -0.02820592 -0.14666757
0.002599684 -0.13963287 -0.17098637 -0.110217534 -0.17446999 -0.12659775 0.18298657 0.029602095
0.057822533 -0.1879519 -0.13544445 -0.06779832 0.028600788 -0.1780007 -0.08704255 -0.12050605
-0.0035645706 -0.07692859 -0.016667802 -0.13668504 -0.1386836 -0.102512725 -0.05213088 -0.14582163
0.17599434 -0.032117944 0.18168212 0.06726133 -0.16277736 0.14516236 -0.04593435 -0.057402484
-0.14536646 -0.18224348 0.07224518 -0.032129917 0.092065014 -0.14920725 0.15998715 -0.13449132
-0.022459919 0.04513954 0.10625678 0.16254498 0.1860693 -0.15114178 0.024094895 -0.109736525
-0.048609238 -0.17296334 0.15656054 -0.16642225 0.08549762 0.04611559 0.049362496 -0.13400044
0.16515172 0.02033209 0.00064639637 -0.20027348 0.063099355 -0.04485352 -0.10752859 0.14825298
0.037188545 -0.12116379 -0.11742514 -0.026411608 0.086107895 -0.075940184 -0.13427445 -0.06446982
-0.15226308 0.07343593 0.1598239 -0.18274476 0.0499573 0.10747155 0.042092003 -0.061780944
0.111337885 0.10858638 0.07879821 -0.030694705 -0.048742626 0.02492574 -0.034365438 -0.05651954
0.13140921 0.17342763 -0.020057488 -0.04750703 0.011679301 -0.010812813 0.049571756 0.060674384
-0.18552735 -0.076778546 0.1650175 0.07280377 -0.01878629 -0.12222478 -0.12421336 -0.18119057
-0.06848947 0.06404506 0.12336647 0.091466784 -0.17984948 -0.12591305 -0.035866037 0.18440227
0.018506479 -0.058846235 0.07347822 -0.079827815 -0.12741938 0.15228756 -0.09389347 -0.040873963
-0.19897401 0.12273849 0.1391929 0.06398613 -0.14603582 -0.20391886 -0.16956718 0.14016409
0.09157821 0.1652707 0.103109285 0.035612993 -0.015883993 -0.16301888 -0.18293394 -0.19937435
0.06879271 -0.10911816 -0.04961499 -0.12519336 -0.047780078 -0.1545353 -0.14124194 0.05207569
-0.07392464 0.106406614 -0.05553318 -0.13956548 -0.02240447 -0.0837127 -0.048672277 -0.17996489
00000000: 7579 0b3e f3c4 1f3e 8985 73bd f6fe 2e3e
00000010: 66a3 70bd e0d9 c03c add7 f6bd fd54 d73d
00000020: 4a55 2a3e 4ad3 22be e89e 2c3e 1dc2 143d
00000030: 25f4 143e 5e39 a13c 5095 c03d 2f8e 0dbd
00000040: 4f98 1b3e c646 013d ece7 ccbd 592f 493d
00000050: 1c59 e7bd 7e98 2ebd b694 bfbd 13c1 fb3d
00000060: ab53 33be c486 aebd 1ec5 3cbd f2b3 e6bd
00000070: b67b f03c 7663 43be a675 403e 9568 21be
00000080: 05b3 213e f226 2d3d 8800 26bd cbfd fb3d
00000090: 46b9 fd3c 826d 243e a4d0 b03c ccd7 77bd
000000a0: b3c6 733d 61de 4dbd a4a0 b53d 9d50 3a3e
000000b0: cf9a fc3d aae4 a9bd a59c f73d 2b0b 1e3d
000000c0: 02ba dc3d cc08 d5bd 9f2c 36be cd19 72bd
000000d0: f967 0abe 2894 303e 662b 983d d85a c13d
000000e0: e094 933d 8b68 3b3c 2729 233e 0112 fbbd
000000f0: de77 c03b 8874 10be 26c9 8d3d 70ef 42bd
00000100: 60ed a93d 6a0f 53bd f4f6 2c3e 7701 dfbd
00000110: 72c4 d3bd d1c5 d5bd f591 313e e93a 823d
00000120: e2d4 4e3e d468 13be fed8 37be e07f 0abe
00000130: d895 e5bd af45 d03d 6612 bd3d aa78 343e
00000140: 38e6 adbd 9d31 f1bd 559d fc3d fcce 84bd
00000150: d942 0c3e 702d a8bc 4022 053e 55f5 13be
00000160: 3b64 b2bd 1662 a03d 0bbb 8a3d 6add 1fbd
00000170: bf64 0c3e 5031 1e3e f486 fbbd faf9 b6bd
00000180: ce5a 4d3e f0bd 47bd 6e55 61bd 85db 34be
00000190: dc9b f0bd 6492 433d 1a10 e7bc 0630 16be
000001a0: 765f 2a3b ebfb 0ebe 0d17 2fbe bbb9 e1bd
000001b0: 43a8 32be d7a2 01be d560 3b3e 1880 f23c
000001c0: 52d7 6c3d 7676 40be f3b1 0abe d8d9 8abd
000001d0: 334c ea3c d145 36be 5d43 b2bd e0cb f6bd
000001e0: 929b 69bb bd8c 9dbd ea8a 88bc 2af7 0bbe
000001f0: 1303 0ebe 31f2 d1bd 3187 55bd 4452 15be
00000200: dc37 343e 1b8e 03bd e10a 3a3e 4fc0 893d
00000210: 1caf 26be 71a5 143e a825 3cbd de1e 6bbd
00000220: f2da 14be 099e 3abe 48f5 933d a99a 03bd
00000230: 958c bc3d c9c9 18be acd3 233e 18b8 09be
00000240: ddfd b7bc 3de4 383d 289d d93d 3172 263e
00000250: f388 3e3e e9c4 1abe a862 c53c 8bbd e0bd
00000260: 7b1a 47bd 4d1d 31be 6851 203e 986a 2abe
00000270: 6019 af3d b3e3 3c3d 5430 4a3d 6937 09be
00000280: 881d 293e 7c8f a63c ed72 293a 7e14 4dbe
00000290: 3c3a 813d 53b8 37bd f337 dcbd a1cf 173e
000002a0: 0453 183d b924 f8bd 987c f0bd 285d d8bc
000002b0: 5659 b03d 8786 9bbd 3e7f 09be c108 84bd
000002c0: daea 1bbe 9465 963d e0a8 233e 7121 3bbe
000002d0: 07a0 4c3d 0b1a dc3d aa68 2c3d 040e 7dbd
000002e0: 1e05 e43d 8962 de3d f560 a13d 7673 fbbc
000002f0: 59a6 47bd 1131 cc3c c6c2 0cbd 0881 67bd
00000300: 2390 063e 0397 313e 9a4f a4bc bb96 42bd
00000310: 8a5a 3f3c 3a28 31bc c10b 4b3d b485 783d
00000320: e2fa 3dbe 123e 9dbd 59fa 283e 251a 953d
00000330: b5e5 99bc fc50 fabd 9363 febd 058a 39be
00000340: 3544 8cbd 0e2a 833d 8fa7 fc3d f052 bb3d
00000350: 762a 38be 5aef 00be 44e8 12bd f3d3 3c3e
00000360: e69a 973c c008 71bd c07b 963d c47c a3bd
00000370: 3a7a 02be 45f1 1b3e 384b c0bd 756b 27bd
00000380: d8bf 4bbe 515e fb3d 9588 0e3e 290b 833d
00000390: 6a8a 15be 1bd0 50be 05a3 2dbe 2d87 0f3e
000003a0: 5b8d bb3d b93c 293e f62a d33d eede 113d
000003b0: 261f 82bc 6cee 26be 0953 3bbe ca28 4cbe
000003c0: 31e3 8c3d 5879 dfbd 1639 4bbd b032 00be
000003d0: 0bb5 43bd 803e 1ebe baa1 10be 524d 553d
000003e0: cd65 97bd b6eb d93d c276 63bd 41ea 0ebe
000003f0: 9489 b7bc 9071 abbd 955c 47bd b748 38be

block1.0.conv.bias f4 [32]
-0.04810519 0.07757062 -0.1934428 0.10512516 -0.062408272 -0.16342632 0.018070184 0.09693186
0.16811734 -0.13280822 -0.11137936 0.032576732 0.055164315 0.07324075 0.10075804 -0.045832817
0.10711521 0.1465154 -0.057565857 0.14517604 0.08239301 0.18348911 -0.11918584 -0.10502459
-0.06710667 0.012361035 0.12118483 -0.12786515 0.10049677 -0.09835336 0.11592678 -0.021206178
00000000: f309 45bd 58dd 9e3d df15 46be dc4b d73d
00000010: d19f 7fbd 3b59 27be ec07 943c 3684 c63d
00000020: f426 2c3e e1fe 07be dd1a e4bd 2e6f 053d
00000030: faf3 613d 3fff 953d 3b5a ce3d 31bb 3bbd
00000040: 385f db3d 2208 163e 2dca 6bbd 07a9 143e
00000050: abbd a83d 92e4 3b3e b517 f4bd 2217 d7bd
00000060: 396f 89bd f085 4a3c c12f f83d 15ef 02be
00000070: 40d1 cd3d 7d6d c9bd 056b ed3d 94b8 adbc

block2.0.conv.weight f4 [64, 16, 3, 3]
-0.07619102 -0.047296796 -0.06049611 0.040624667 -0.0565543 -0.00615026 0.015710328 -0.04741359
0.021981142 -0.07300744 -0.05490908 -0.06548182 -0.025992008 -0.031474236 0.014105182 -0.01642875
0.036578722 0.07254251 0.029748287 -0.03992038 -0.08552472 0.02735439 -0.047926787 0.035767276
0.04908943 0.02756019 0.07239206 0.08241701 0.019230649 -0.05615819 0.07868856 -0.03759408
-0.037734315 0.07048586 0.067269966 0.026971342 0.0044810134 -0.07546994 -0.01749621 0.07685038
0.014463635 -0.0045139687 -0.017522315 -0.026115276 0.051024992 0.012135156 0.062148884 -0.0056876554
0.039745066 0.04251216 0.019403666 0.05687797 0.058719143 0.08418541 0.056209516 -0.0295191
-0.08515757 0.013494915 -0.006595793 -0.028082585 -0.016597563 -0.0030129296 0.05639871 0.030140614
-0.0262766 -0.028378023 -0.020955946 -0.03162762 0.076042466 0.040760912 0.07256453 0.00017758642
0.021078646 0.024730233 -0.09237533 0.0059683057 -0.008600953 -0.05347185 -0.06565753 0.073922895
0.06468193 0.027177373 0.066567354 -0.048677947 -0.023815352 0.019160265 -0.030059556 -0.020995554
-0.07851179 0.015180366 -0.046815183 0.00351298 0.086297065 -0.020152487 -0.023798214 0.053756747
-0.025602048 -0.0015745375 0.08374137 -0.030111717 -0.066708736 -0.05046809 -0.023432637 -0.04434661
-0.05156823 0.031242678 0.012570957 -0.030111177 -0.058091123 -0.023602597 -0.029933423 -0.027012462
-0.07840963 0.015329622 -0.064541966 -0.06746099 -0.07304196 0.036836553 -0.058827236 -0.042376686
0.06350286 0.036852468 0.03648371 -0.083600365 -0.06340153 -0.042475183 0.06423938 0.0021456683
-0.07375645 0.00055055827 -0.06704204 -0.025359018 -0.024830693 0.07377279 0.03230733 -0.012167665
0.01457981 -0.020827645 0.035212137 0.03617236 0.029497042 -0.02845968 0.068646975 -0.008311321
-0.030858373 0.05443072 0.07043717 0.089508876 0.029805575 -0.019266112 0.04382855 0.07120638
-0.08071223 0.0026812372 -0.04279587 0.030008703 0.053031925 0.0020422563 0.011800894 0.042398736
-0.01005503 -0.0654049 0.07739955 -0.030312773 -0.0024913116 0.006979405 -0.008540551 -0.08207939
0.033598848 -0.0346066 -0.04354952 0.02688793 -0.036071498 -0.031260803 -0.025691193 -0.030323328
-0.035182912 -0.019219844 0.021385172 -0.06425469 -0.070918135 -0.014872044 -0.001451765 0.026320959
-0.0788994 0.0073496816 0.0320733 0.0326898 -0.09089677 -0.020905048 -0.06367611 -0.04371088
0.048192356 -0.009431911 0.04000028 -0.046097297 0.0150246965 -0.044248097 0.026971426 -0.050237246
-0.03468783 -0.075934276 -0.0019614776 0.078623936 0.037844483 -0.04347358 -0.00038987992 0.0016436579
-0.055554233 0.07665139 0.012319221 0.03166767 -0.02078027 -0.03051625 0.015463582 0.038684495
0.0090739 -0.04781041 0.074335225 -0.026180554 -0.061583962 -0.056505397 0.075152434 -0.0072788736
-0.016119717 -0.052949004 -0.040409718 -0.085329 -0.07896916 0.042142298 0.0644424 0.0734205
-0.06793212 0.039536763 -0.04278879 0.05597427 0.06911238 0.071424685 0.065735064 0.058627356
0.008658331 0.044225585 -0.024553932 0.028163921 -0.0366312 -0.009467846 -0.092827894 -0.040064935
-0.061197296 -0.043701172 -0.068651795 -0.086833045 0.019443272 0.06690546 0.08804569 0.056697488
00000000: 0a0a 9cbd 49ba 41bd c5ca 77bd 0d66 263d
00000010: 7ba5 67bd 1f88 c9bb f2b2 803c c134 42bd
00000020: cc11 b43c ed84 95bd 58e8 60bd 551b 86bd
00000030: 31ed d4bc 21eb 00bd 6c19 673c 9695 86bc
00000040: 92d3 153d 2b91 943d aeb2 f33c 8d83 23bd
00000050: 9627 afbd 5016 e03c e14e 44bd b580 123d
00000060: 0012 493d e8c5 e13c 4a42 943d 40ca a83d
00000070: 9889 9d3c 2106 66bd 7827 a13d 40fc 19bd
00000080: 4c8f 1abd e45a 903d d6c4 893d 01f3 dc3c
00000090: 77d5 923b fc8f 9abd 3654 8fbc bb63 9d3d
000000a0: e2f8 6c3c eae9 93bb f58a 8fbc b4ef d5bc
000000b0: 95ff 503d 89d2 463c d48f 7e3d 835f babb
000000c0: b9cb 223d 3b21 2e3d 70f4 9e3c e0f8 683d
000000d0: 7c83 703d 6669 ac3d f33b 663d 0ad2 f1bc
000000e0: 1867 aebd c719 5d3c 8621 d8bb 730d e6bc
000000f0: 9df7 87bc 9274 45bb 5502 673d 73e9 f63c
00000100: 0642 d7bc 0779 e8bc ceab abbc f78b 01bd
00000110: 27bc 9b3d eaf4 263d b69c 943d 7e36 3a39
00000120: 20ad ac3c 0f97 ca3c 472f bdbd c791 c33b
00000130: 03eb 0cbc 4c05 5bbd 7577 86bd e364 973d
00000140: f677 843d 15a3 de3c 7754 883d 8762 47bd
00000150: 6a18 c3bc fdf5 9c3c 753f f6bc defe abbc
00000160: caca a0bd 12b7 783c 47c1 3fbd 063a 663b
00000170: 84bc b03d d416 a5bc 79f4 c2bc 0930 5c3d
00000180: 63bb d1bc b660 ceba 9880 ab3d d9ac f6bc
00000190: 979e 88bd a1b7 4ebd cdf5 bfbc caa4 35bd
000001a0: 3539 53bd a5f0 ff3c 6af6 4d3c b7ab f6bc
000001b0: f5f0 6dbd 3c5a c1bc f036 f5bc 3d49 ddbc
000001c0: 3a95 a0bd 1829 7b3c 942e 84bd fd28 8abd
000001d0: 0697 95bd ede1 163d d4f4 70bd 2d93 2dbd
000001e0: ca0d 823d 9df2 163d f16f 153d ab36 abbd
000001f0: a9d8 81bd 75fa 2dbd f08f 833d 579e 0c3b
00000200: 9f0d 97bd 5753 103a 564d 89bd b7bd cfbc
00000210: bd69 cbbc 3016 973d b154 043d e35a 47bc
00000220: 28e0 6e3c bd9e aabc 9a3a 103d 7829 143d
00000230: c8a3 f13c 4624 e9bc c996 8c3d 352c 08bc
00000240: b3ca fcbc bff2 5e3d 5d41 903d 6e50 b73d
00000250: d22a f43c f7d3 9dbc 9185 333d a7d4 913d
00000260: 744c a5bd b2b7 2f3b b94a 2fbd d0d4 f53c
00000270: 0138 593d 60d7 053b 8958 413c 4caa 2d3d
00000280: dabd 24bc 01f3 85bd a883 9e3d 7e52 f8bc
00000290: 4645 23bb 7eb3 e43b abed 0bbc 3d19 a8bd
000002a0: f29e 093d a6bf 0dbd fb60 32bd 1444 dc3c
000002b0: b5bf 13bd 540b 00bd 5676 d2bc a168 f8bc
000002c0: f51b 10bd ef72 9dbc f52f af3c f797 83bd
000002d0: 873d 91bd e0a9 73bc 2649 beba 0d9f d73c
000002e0: 0296 a1bd 99d5 f03b 4b5f 033d bde5 053d
000002f0: 1628 babd 1041 abbc 9f68 82bd 2e0a 33bd
00000300: 5965 453d 4d88 1abc 55d7 233d 85d0 3cbd
00000310: 252a 763c 7e3d 35bd 2ef3 dc3c 92c5 4dbd
00000320: d314 0ebd 6e83 9bbd 228c 00bb 9605 a13d
00000330: d102 1b3d 5a11 32bd cc68 ccb9 0270 d73a
00000340: d68c 63bd 67fb 9c3d 8fd6 493c f5b5 013d
00000350: 633b aabc 37fd f9bc f75a 7d3c a273 1e3d
00000360: b2aa 143c d9d4 43bd 113d 983d 9a78 d6bc
00000370: 773f 7cbd 3472 67bd 85e9 993d 9e83 eebb
00000380: 7f0d 84bc 0ee1 58bd a984 25bd f9c0 aebd
00000390: 95ba a1bd 679d 2c3d 61fa 833d 7d5d 963d
000003a0: ff1f 8bbd 4df1 213d 4c43 2fbd 4745 653d
000003b0: cb8a 8d3d 1b47 923d 1ba0 863d 3d23 703d
000003c0: acdb 0d3c e325 353d 5425 c9bc 06b8 e63c
000003d0: 990a 16bd 061f 1bbc 8d1c bebd 211b 24bd
000003e0: 04aa 7abd 0000 33bd 5099 8cbd 86d5 b1bd
000003f0: 7f47 9f3c bb05 893d 4c51 b43d a03b 683d

block2.0.conv.bias f4 [64]
-0.058659453 -0.017830983 -0.07977686 0.029081138 -0.035288125 -0.04573813 0.0016506251 -0.021496024
0.052285533 0.07715775 -0.0647711 0.025612244 0.0015477107 0.05232481 -0.03495378 -0.0037360813
-0.0012466158 0.026950907 0.03117682 0.027029723 0.00021574163 -0.079248086 -0.053983007 -0.055275757
-0.07595276 0.0819881 -0.0399948 -0.064033404 -0.05183164 0.03900699 -0.050168756 -0.067682154
-0.069764115 0.012653371 -0.0061822827 -0.07239811 -0.055213526 -0.0771224 0.024974149 0.026486566
0.008223789 -0.037217338 -0.044103026 0.034085043 -0.02807341 -0.01816506 -0.036312144 0.013924698
0.023416836 0.07574938 0.07476498 -0.027724221 0.012824815 -0.061747946 -0.07006645 0.07125299
0.007910328 -0.04159725 0.036854908 0.032870013 0.021411635 0.0320716 -0.0015474624 -0.05531033
00000000: e544 70bd 4812 92bc 0d62 a3bd 913b ee3c
00000010: 488a 10bd e857 3bbd ca59 d83a 6e18 b0bc
00000020: 5b29 563d e204 9e3d b6a6 84bd c5d0 d13c
00000030: 8edc ca3a 8a52 563d b22b 0fbd 0bd9 74bb
00000040: 7c65 a3ba 26c8 dc3c 8866 ff3c 706d dd3c
00000050: b438 6239 d24c a2bd 491d 5dbd d568 62bd
00000060: 1f8d 9bbd 61e9 a73d 96d1 23bd f223 83bd
00000070: 6a4d 54bd cbc5 1f3d c17d 4dbd f19c 8abd
00000080: 7de0 8ebd 1650 4f3c bf94 cabb 7645 94bd
00000090: 9427 62bd 59f2 9dbd 9696 cc3c 5bfa d83c
000000a0: 12bd 063c 3571 18bd 60a5 34bd c29c 0b3d
000000b0: 35fa e5bc e4ce 94bc 0bbc 14bd 6b24 643c
000000c0: aad4 bf3c 7e22 9b3d 621e 993d e81d e3bc
000000d0: 2c1f 523c 6aeb 7cbd 007f 8fbd 16ed 913d
000000e0: 529a 013c e161 2abd 2cf5 163d b5a2 063d
000000f0: 7467 af3c 835d 033d 39d4 caba 168d 62bd

block3.0.conv.weight f4 [128, 32, 3, 3]
-0.056307994 0.053533345 0.03748058 -0.049965773 0.041968174 -0.05922906 0.035184845 0.03722534
0.033510096 0.024980985 -0.03556765 -0.025673322 0.0122683225 0.023108725 0.05188196 0.001805928
0.023239069 -0.044785045 -0.010092865 0.03633883 0.006839684 0.047626086 -0.045162085 -0.03747895
0.018888198 -0.001933754 -0.048679963 0.028661644 0.007110403 0.018950108 0.016309235 -0.035361566
-0.034798566 -0.04570398 0.045258623 -0.029141484 0.05348857 -0.01841983 0.01366669 0.056252345
-0.031043297 -0.055128627 0.0070517985 -0.04371233 0.03148807 0.014946674 0.02929898 -0.017274927
-0.051799033 -0.06872905 -0.049343884 0.047521908 -0.019890457 -0.0063750437 -0.016391393 -0.033940937
0.044261426 -0.019559337 -0.032678384 0.049879227 0.03105037 0.027107194 0.037765913 -0.040461246
0.016176706 -0.019338377 -0.0012022494 0.02448364 -0.022652326 0.054664806 -0.0031533807 0.030734712
0.0006573126 -0.06143021 -0.03953947 -0.05332993 0.0022648752 -0.04389136 -0.05060544 0.008595154
-0.05535359 -0.026665268 -0.032435242 0.03439671 0.05756739 0.026125167 -0.028039098 0.047719415
0.05835173 -0.012525294 0.042277962 0.013071615 -0.04284853 -0.014275909 -0.04529765 0.017195761
0.032717958 -0.0586653 -0.025529996 -0.000978182 0.04468607 -0.034592476 -0.0067619137 -0.00526617
-0.032812607 -0.028772308 -0.018226951 -0.020146253 -0.016519342 0.008317321 -0.0010939944 -0.02704013
0.03624349 0.043610785 -0.0047578104 -0.006228262 -0.052209157 -0.040487237 0.00032992323 -0.008726878
0.017732553 -0.02810887 -0.011455525 0.0090082055 0.058781426 0.046929833 -0.03122575 0.0016592412
-0.0025908477 0.004059927 0.029840643 -0.017545031 -0.006858915 -0.0522481 -0.014652702 -0.059329316
0.019337395 -0.04710919 -0.03199931 -0.045184728 0.041880537 -0.019593714 0.049733147 -0.031043122
0.0408326 -0.015623648 -0.04776734 0.045825344 -0.043555807 -0.038915534 0.028478047 -0.008642164
-0.0047315373 0.07295375 -0.03066631 -0.0049647666 0.032223944 -0.002717391 0.011199699 -0.0119043505
0.005990419 0.059009574 -0.0125539815 0.022723949 0.042982537 0.04305188 0.026242401 0.038835503
-0.017951967 0.0020231437 -0.028040605 -0.061215356 0.04490035 -0.061716404 -0.040102616 -0.024862422
-0.05710829 -0.047708146 -0.034261957 0.0045065205 -0.04917185 -0.040051103 -0.032307502 -0.04369287
0.015233256 0.0030598913 0.013643527 0.05470296 -0.02475418 -0.02005418 0.021742135 0.053993918
0.018799735 -0.004238441 0.019674553 -0.058469042 -0.03962201 -0.024396257 -0.05325442 -0.042348005
-0.043878835 0.014861061 0.016478257 -0.0034854922 -0.014040108 0.00056929106 0.03498053 -0.04251387
0.044599846 0.02756828 -0.020422854 0.042175807 0.000117822055 -0.026968462 0.05394062 0.01814135
0.04145231 -0.018770969 -0.052647743 0.04509907 0.0027099918 0.02602155 -0.017005263 0.027192248
-0.047741827 0.003902872 0.047532 -0.012886747 0.048387874 0.020407999 0.02721272 0.05862001
-0.012741739 -0.013580031 0.032896787 -0.034188513 -0.047289897 0.034025002 -0.055612873 -0.031961042
0.009860854 0.004209784 -0.040005498 -0.018421141 0.03377756 -0.04229433 0.029914467 -0.010199177
-0.025479427 -0.05909804 -0.017881498 0.045229558 -0.0367975 -0.051204003 -0.009101479 0.037150674
00000000: 36a3 66bd c845 5b3d 3d85 193d e9a8 4cbd
00000010: d2e6 2b3d 2c9a 72bd fc1d 103d 9979 183d
00000020: e241 093d eca4 cc3c 62af 11bd dc50 d2bc
00000030: 1301 493c 824e bd3c 2e82 543d e3b4 ec3a
00000040: dc5f be3c 8670 37bd 8b5c 25bc 06d8 143d
00000050: 6e1f e03b 9213 433d e1fb 38bd 8783 19bd
00000060: 6cbb 9a3c 0476 fdba a464 47bd d3cb ea3c
00000070: 62fe e83b 423d 9b3c f29a 853c 4ad7 10bd
00000080: f188 0ebd 1934 3bbd 1b61 393d 1fba eebc
00000090: d516 5b3d 2fe5 96bc 41ea 5f3c dc68 663d
000000a0: 834e febc 8ece 61bd c612 e73b b30b 33bd
000000b0: a2f9 003d e5e2 743c 6a04 f03c 2684 8dbc
000000c0: 392b 54bd d1c1 8cbd d01c 4abd 55a6 423d
000000d0: 50f1 a2bc bee5 d0bb 3e47 86bc a705 0bbd
000000e0: 784b 353d e73a a0bc c5d9 05bd 294e 4c3d
000000f0: 585d fe3c e80f de3c 6eb0 1a3d b1ba 25bd
00000100: 0385 843c 846b 9ebc cc94 9dba ea91 c83c
00000110: 5f91 b9bc 34e8 5f3d f3a8 4ebb 5dc7 fb3c
00000120: 804f 2c3a 3e9e 7bbd 24f4 21bd 7c70 5abd
00000130: 4d6e 143b 6dc7 33bd a647 4fbd b0d2 0c3c
00000140: 72ba 62bd 1f71 dabc d1da 04bd 91e3 0c3d
00000150: c9cb 6b3d 7204 d63c 40b2 e5bc 6f75 433d
00000160: 3902 6f3d e436 4dbc a82b 2d3d 542a 563c
00000170: f181 2fbd 81e5 69bc 078a 39bd 20de 8c3c
00000180: 4403 063d 074b 70bd 4824 d1bc 5736 80ba
00000190: be08 373d d7b0 0dbd 0b93 ddbb d68f acbb
000001a0: 8366 06bd e7b3 ebbc b050 95bc c109 a5bc
000001b0: 9253 87bc 5f45 083c 5c64 8fba 4383 ddbc
000001c0: 0e74 143d 39a1 323d 68e7 9bbb 7316 ccbb
000001d0: 45d9 55bd f2d5 25bd 8cf9 ac39 2efb 0ebc
000001e0: dc43 913c 9344 e6bc f4af 3bbc 2797 133c
000001f0: cbc4 703d 7f39 403d 25cd ffbc e57a d93a
00000200: 36cb 29bb 2309 853b 5d74 f43c 99ba 8fbc
00000210: c0c0 e0bb 1b02 56bd e311 70bc 4c03 73bd
00000220: 7569 9e3c 91f5 40bd b511 03bd 9f13 39bd
00000230: ed8a 2b3d ff82 a0bc fcb4 4b3d 254e febc
00000240: 1640 273d 54fa 7fbc b0a7 43bd 5bb3 3b3d
00000250: 9367 32bd e565 1fbd cb4a e93c dd97 0dbc
00000260: 030b 9bbb c768 953d ea37 fbbc 7baf a2bb
00000270: 41fd 033d 4116 32bb f17e 373c 770a 43bc
00000280: 474b c43b 06b4 713d 37af 4dbc 9327 ba3c
00000290: 750e 303d 2b57 303d 4efa d63c fa11 1f3d
000002a0: 0110 93bc b896 043b 69b5 e5bc f4bc 7abd
000002b0: 6ee9 373d 57ca 7cbd a442 24bd 47ac cbbc
000002c0: 62ea 69bd 9e69 43bd 4456 0cbd 6fab 933b
000002d0: 6c68 49bd a00c 24bd df54 04bd 4bf7 32bd
000002e0: e894 793c 7588 483b 1a89 5f3c 3610 603d
000002f0: 47c9 cabc aa48 a4bc 901c b23c ba28 5d3d
00000300: e701 9a3c 9fe2 8abb 872c a13c 3c7d 6fbd
00000310: b04a 22bd a9da c7bc 4f21 5abd 1a75 2dbd
00000320: 4bba 33bd cf7b 733c 69fd 863c db6c 64bb
00000330: 7b08 66bc 7a3c 153a bf47 0f3d 0623 2ebd
00000340: 54ae 363d e0d6 e13c d44d a7bc 8ac0 2c3d
00000350: 3c17 f738 f7ec dcbc d7f0 5c3d 2b9d 943c
00000360: e6c9 293d 93c5 99bc 29a5 57bd cdb9 383d
00000370: 1e9a 313b 252b d53c 9f4e 8bbc 47c2 de3c
00000380: ef8c 43bd 54c7 7f3b eab0 423d ef22 53bc
00000390: 5d32 463d ad2e a73c 36ed de3c 891b 703d
000003a0: bac2 50bc c77e 5ebc c8be 063d 4109 0cbd
000003b0: 0db3 41bd cd5d 0b3d 53ca 63bd 95e9 02bd
000003c0: 6b8f 213c 3af2 893b cedc 23bd efe7 96bc
000003d0: 575a 0a3d d23c 2dbd 2f0f f53c 731a 27bc
000003e0: 3bba d0bc c910 72bd 387c 92bc a142 393d
000003f0: fab8 16bd 4abb 51bd 5f1e 15bc 4e2b 183d

block3.0.conv.bias f4 [128]
-0.0017438105 -0.012933009 -0.028082598 -0.014362767 -0.028377522 -0.0075351275 0.04833627 -0.016881064
-0.022832446 -0.020488404 -0.030813126 -0.027305493 -0.045079444 0.044558883 -0.044598844 0.026488768
0.038661532 0.025606984 0.017204173 0.02930859 -0.050401278 -0.06196022 -0.06517776 0.012751469
0.019683974 0.0027677952 -0.046851248 -0.013496339 -0.013982666 0.051799152 0.018992115 -0.024731502
-0.03929165 -0.054123275 -0.0029083192 0.028675951 -0.014462291 0.012877836 -0.009008761 -0.032955814
0.023927085 0.031656455 0.049574666 -0.05704596 -0.027035642 0.04232512 -0.014970758 0.04441924
0.021200515 0.02704122 -0.04425044 0.050170977 -0.019710207 -0.050608084 -0.044226352 0.016387444
0.052149247 0.039917044 -0.012166927 0.011615159 -0.014556048 -0.012923352 -0.00516402 0.05321494
-0.045898557 -0.01997187 -0.0072575933 -0.030589066 -0.011603699 -0.03389173 0.019252868 -0.0552407
0.0025433016 0.01852153 0.02929807 0.012643079 -0.0068021785 -0.022516815 -0.069256045 -0.021271916
-0.0012117126 0.004610842 -0.05781847 -0.004608952 -0.0032392316 0.03274584 0.032869082 0.0014127897
-0.013297138 0.03545003 0.025718665 -0.04406141 0.041860104 -0.010219669 0.046930708 0.035833914
-0.048649196 0.037665494 -0.062411323 0.036972243 -0.041119777 -0.011079817 0.04159726 0.039899904
0.0066224504 -0.016607769 -0.061498273 0.05384866 0.037056047 -0.046348184 -0.027223403 -0.05048187
0.020166872 -0.05089456 -0.05035002 -0.034275424 0.032231428 -0.058898754 0.0065991217 -0.063213855
0.0004931219 0.0017295205 -0.049952973 0.0010589847 0.05535088 -0.04589937 -0.01942025 -0.012429803
00000000: 9290 e4ba f9e4 53bc 7a0d e6bc d051 6bbc
00000010: fa77 e8bc 3be9 f6bb 41fc 453d 284a 8abc
00000020: 1c0b bbbc 4cd7 a7bc cf6b fcbc c5af dfbc
00000030: 39a5 38bd 6083 363d 47ad 36bd f9fe d83c
00000040: 8e5b 1e3d bdc5 d13c c4ef 8c3c 9118 f03c
00000050: 9271 4ebd 00ca 7dbd eb7b 85bd 8aeb 503c
00000060: 4940 a13c e663 353b 18e7 3fbd c01f 5dbc
00000070: 8d17 65bc 592b 543d 5a95 9b3c b899 cabc
00000080: 48f0 20bd 5eb0 5dbd 8099 3ebb d4e9 ea3c
00000090: 3ff3 6cbc 8ffd 523c 7b99 13bc adfc 06bd
000000a0: bc02 c43c 33aa 013d ce0e 4b3d 06a9 69bd
000000b0: da79 ddbc 1b5d 2d3d e947 75bc f3f0 353d
000000c0: b4ac ad3c 8c85 dd3c f33f 35bd 1580 4d3d
000000d0: 4d77 a1bc 6c4a 4fbd b126 35bd f63e 863c
000000e0: 739a 553d 0e80 233d ca57 47bc 824d 3e3c
000000f0: 7e7c 6ebc 78bc 53bc f136 a9bb e9f7 593d
00000100: 2000 3cbd 0c9c a3bc 1bd1 edbb ec95 fabc
00000110: 711d 3ebc 0ed2 0abd 31b8 9d3c 1244 62bd
00000120: 85ad 263b 77ba 973c 8202 f03c eb24 4f3c
00000130: cfe4 debb 2f75 b8bc 1dd6 8dbd 7142 aebc
00000140: 54d2 9eba 8c16 973b 0fd3 6cbd b106 97bb
00000150: 4a49 54bb 8020 063d bba1 063d 5b2d b93a
00000160: 3ddc 59bc 0d34 113d f3af d23c bd79 34bd
00000170: 8075 2b3d 6670 27bc 6a3a 403d 95c6 123d
00000180: 6144 47bd 2247 1a3d 04a3 7fbd 3570 173d
00000190: 366d 28bd 1f88 35bc e361 2a3d 156e 233d
000001a0: 2401 d93b 040d 88bc 9de5 7bbd 6a90 5c3d
000001b0: 15c8 173d 98d7 3dbd 9d03 dfbc 14c6 4ebd
000001c0: ff34 a53c d076 50bd d33b 4ebd 6364 0cbd
000001d0: 1a05 043d d23f 71bd 723d d83b 4476 81bd
000001e0: da44 013a 14b1 e23a 7d9b 4cbd a1cd 8a3a
000001f0: 9bb7 623d fa00 3cbd 3717 9fbc 5fa6 4bbc

block4.0.conv.weight f4 [256, 64, 3, 3]
-0.033324845 0.015420011 -0.02962769 0.026238019 -0.0015679088 -0.011064935 -0.03432753 -0.0016834298
0.016069198 0.03611682 -0.025783215 0.010238278 -0.026500339 -0.027235275 0.0051610013 -0.023243502
0.025359804 0.029241221 -0.0032567177 -0.008298144 -0.017144129 0.011308936 0.03658825 -0.04024148
0.01695774 0.03805163 0.039990123 -0.014848323 0.009277978 0.005314435 0.045767203 -0.012780457
-0.026180329 -0.00021283847 0.03588353 0.05318176 -0.037565105 -0.04117351 0.031917512 0.018074447
0.0075082174 -0.0140034435 -0.053447284 0.006512033 -0.049211312 -0.033333577 -0.04602894 0.018084988
0.031899862 0.0124277165 0.024041388 0.00079744915 0.0062315585 -0.00555915 0.010523523 0.04161683
0.005914981 -0.01673178 -0.008131818 0.040670365 0.018396968 -0.016654173 -0.033366915 0.0078067295
-0.023845484 0.029602386 -0.008263507 -0.008296185 0.025188686 -0.04234171 -0.019284008 0.035260405
0.0024053014 -0.01904103 -0.011276608 -0.03138466 -0.044384614 -0.04013181 -0.0005103277 0.021905974
-0.042105194 0.010991312 0.009982474 -0.02064715 -0.010803151 -0.034299854 -0.042940702 0.015569566
-0.002753622 0.024972944 0.0034227383 -0.01718831 -0.027993975 -0.03323934 -0.027710907 -0.0027403068
0.00844516 -0.021569265 -0.015671924 0.035456743 0.022846378 0.0033129945 0.0076202755 0.03057858
-0.025495317 -0.032578208 0.031417858 0.010520995 0.019764194 -0.01618752 -0.056694645 -0.044325043
-0.0072355634 -0.033576444 -0.028010242 0.005672834 -0.05102524 -0.016764661 -0.011184203 0.014762258
0.019977452 -0.022242708 -0.020722684 -0.005137222 -0.017690372 -0.01248021 -0.014642937 -0.009418389
0.0023616024 0.024752209 -0.039921004 -0.040419705 -0.035958048 -0.028466089 0.0060266787 -0.023414874
-0.050853465 -0.051490873 -0.026517455 -0.019780831 -0.010545935 -0.038399972 -0.017903788 -0.016657235
-0.0010323833 0.0007758464 -0.038016688 0.0054762806 0.038354874 -0.00093790423 -0.034784153 0.019878611
-0.027788317 -0.009837521 0.036434058 -0.002195119 -0.034719363 -0.0010764393 0.009220375 0.03435611
-0.031032411 -0.025448699 -0.0008382499 0.026295103 -0.0073738233 -0.032036312 0.030438364 -0.02778726
0.035873137 0.0023639381 0.030104421 -0.006281196 -0.033347994 -0.026896937 -0.043366786 -0.02083367
-0.024996188 -0.033172626 0.035670564 -0.030867465 0.0102165695 0.033707835 0.037631273 0.011792992
-0.035803497 -0.024112727 0.006152527 0.013993204 0.0030721072 -0.037698373 -0.0062847463 -0.0045448593
-0.032171544 -0.0007544897 -0.021101704 -0.034020703 0.03177585 -0.028906647 -0.005705842 -0.00081165694
-0.0049752593 -0.029726284 0.006174803 -0.01493072 0.012914064 -0.03546187 0.006074809 0.023051715
-0.02049375 0.04064679 0.008906021 0.0060463157 0.022699272 0.013893457 -0.027611567 0.031694826
0.038971372 -0.03198907 0.00567737 0.0055963234 0.034002636 -0.0015638729 0.03411054 0.04456725
0.027773526 -0.027811047 -0.0111754425 -0.014980824 -0.008413993 0.043143 -0.008126133 0.02867668
0.0204701 -0.036535144 -0.022560213 -0.0031582052 -0.025249945 0.017865216 -0.027333593 -0.042951226
0.02804412 0.03550047 0.03411233 0.012919877 0.01441113 0.038778737 -0.008718971 0.00899149
-0.0046853293 0.032421634 -0.032500494 0.02587972 -0.0033450013 -0.02501426 0.031071361 0.010624132
00000000: a27f 08bd 37a4 7c3c c5b5 f2bc 1df1 d63c
00000010: 4a82 cdba b349 35bc 069b 0cbd 88a6 dcba
00000020: 8da3 833c 3bef 133d 5237 d3bc 73be 273c
00000030: 3d17 d9bc 831c dfbc 9e1d a93b 2869 bebc
00000040: 5dbf cf3c 498b ef3c a86e 55bb f0f4 07bc
00000050: d871 8cbc 1e49 393c 90dd 153d 40d4 24bd
00000060: f5ea 8a3c 07dc 1b3d afcc 233d 6146 73bc
00000070: a902 183c b624 ae3b 6476 3b3d 1f65 51bc
00000080: 2178 d6bc 642d 5fb9 9cfa 123d 1ed5 593d
00000090: dedd 19bd 8ea5 28bd f0bb 023d dd10 943c
000000a0: 7e07 f63b b36e 65bc 8aeb 5abd e462 d53b
000000b0: cd91 49bd ca88 08bd d788 3cbd f826 943c
000000c0: 6ea9 023d 9f9d 4b3c 72f2 c43c e80b 513a
000000d0: 1a32 cc3b 8829 b6bb db6a 2c3c 6976 2a3d
000000e0: 75d2 c13b 1611 89bc 513b 05bc f895 263d
000000f0: 3db5 963c 556e 88bc bfab 08bd 98cf ff3b
00000100: 9b57 c3bc b480 f23c a963 07bc b9ec 07bc
00000110: 8158 ce3c 806e 2dbd 7ff9 9dbc 376d 103d
00000120: 43a2 1d3b effb 9bbc 86c1 38bc 348d 00bd
00000130: a4cc 35bd 4161 24bd 83c7 05ba 2874 b33c
00000140: 7f76 2cbd e714 343c 888d 233c 3624 a9bc
00000150: b3ff 30bc 017e 0cbd 97e2 2fbd 7e17 7f3c
00000160: 1c76 34bb 0f94 cc3c 0550 603b 80ce 8cbc
00000170: 9f53 e5bc f925 08bd fc01 e3bc b896 33bb
00000180: 925d 0a3c 07b2 b0bc 6862 80bc 173b 113d
00000190: 5428 bb3c d31e 593b 81b3 f93b ee7f fa3c
000001a0: 8edb d0bc ba70 05bd 03b0 003d 4060 2c3c
000001b0: 85e8 a13c b19b 84bc a538 68bd 2d8e 35bd
000001c0: 4e18 edbb 7487 09bd bc75 e5bc 2ee3 b93b
000001d0: d8ff 50bd 0b56 89bc f33d 37bc 66dd 713c
000001e0: c1a7 a33c 5736 b6bc 9ec2 a9bc 2456 a8bb
000001f0: 66eb 90bc cb79 4cbc eee8 6fbc 964f 1abc
00000200: 1dc5 1a3b 25c5 ca3c 3584 23bd 228f 25bd
00000210: bf48 13bd b731 e9bc 727b c53b 8dd0 bfbc
00000220: b94b 50bd 18e8 52bd 223b d9bc 690b a2bc
00000230: dbc8 2cbc 4a49 1dbd f7aa 92bc c174 88bc
00000240: 0951 87ba 2c62 4b3a 63b7 1bbd 5f72 b33b
00000250: 001a 1d3d b0dd 75ba d479 0ebd 78d8 a23c
00000260: 53a4 e3bc 8e2d 21bc e13b 153d fcdb 0fbb
00000270: e435 0ebd 4f17 8dba 0e11 173c feb8 0c3d
00000280: af37 febc ca79 d0bc 00be 5bba d468 d73c
00000290: 1da0 f1bb 8238 03bd e059 f93c 1ca2 e3bc
000002a0: b6ef 123d 4dec 1a3b 8c9d f63c 7ed2 cdbb
000002b0: e897 08bd f756 dcbc 5fa1 31bd 5fab aabc
000002c0: cec4 ccbc 05e0 07bd 4c1b 123d c4dd fcbc
000002d0: 6663 273c 3a11 0a3d 4023 1a3d 6537 413c
000002e0: b0a6 12bd 0e88 c5bc 239b c93b c043 653c
000002f0: 6855 493b 9c69 1abd 46f0 cdbb 0bed 94bb
00000300: 4fc6 03bd f2c8 45ba 7bdd acbc 4b59 0bbd
00000310: 6527 023d a2cd ecbc 12f8 babb 60c5 54ba
00000320: 8007 a3bb 8984 f3bc 0056 ca3b fb9f 74bc
00000330: 8395 533c 7740 11bd 310f c73b f3d6 bc3c
00000340: 82e2 a7bc 407d 263d 8fea 113c 2c20 c63b
00000350: d3f3 b93c 62a1 633c a731 e2bc 6fd2 013d
00000360: 72a0 1f3d f906 03bd 3b09 ba3b 5d61 b73b
00000370: 5946 0b3d defa ccba 7eb7 0b3d 268c 363d
00000380: 4e85 e33c fed3 e3bc 3419 37bc 2172 75bc
00000390: d8da 09bc b7b6 303d 7923 05bc 5beb ea3c
000003a0: e9b0 a73c e0a5 15bd 32d0 b8bc e4f9 4ebb
000003b0: f9d8 cebc 135a 923c b3ea dfbc a0ed 2fbd
000003c0: c8bc e53c f168 113d 5fb9 0b3d e4ad 533c
000003d0: a91c 6c3c 74d6 1e3d 04da 0ebc 0b51 133c
000003e0: 6487 99bb 8ccc 043d 3d1f 05bd b501 d43c
000003f0: cf37 5bbb b5ea ccbc 5e89 fe3c d710 2e3c

block4.0.conv.bias f4 [256]
0.033566426 -0.033336956 -0.03449139 0.02235149 0.003912077 -0.038287356 -0.03269552 0.03528306
-0.026697243 -0.04117682 -0.008423169 -0.0068421424 0.027150946 0.0003272801 -0.015142752 -0.037227806
0.028347638 0.0038411445 0.017245708 -0.035075556 -0.018053832 0.03077646 -0.03895214 -0.0004884417
0.015675679 -0.005832552 0.03136633 -0.0077140243 0.032201607 -0.015297679 0.025669092 -0.01654574
-0.04478542 -0.003278497 -0.003591873 0.027195947 0.033431828 0.02692287 0.030976767 -0.019986164
0.030126575 0.019190948 -0.022317443 0.026789729 -0.010847033 -0.032901198 -0.0062538045 -0.011973979
-0.020030051 0.034484774 0.033838056 -0.008014059 0.029883984 -0.0282674 0.043547124 0.0055622174
0.038195636 -0.040263362 0.0134353805 0.022881754 -0.018908799 -0.029260963 -0.03799074 0.018733125
0.009059919 0.03497705 -0.017528629 0.00080292055 -0.02460116 0.012864754 0.020795275 -0.007551181
0.037496336 -0.030612858 -0.033763163 0.030732257 -0.022534786 0.015337775 0.024662528 0.021892605
-0.040907457 -0.01003797 0.041556127 -0.018557554 0.040895898 0.026253264 0.0109609775 -0.018573577
-0.024677727 0.018498832 -0.0204271 0.0146749625 0.033916116 -0.043315485 0.03021659 9.1341644e-05
-0.009811015 0.043858577 0.0030545231 0.039150383 0.032595344 -0.038725376 -0.021258695 0.029902253
-0.041037224 -0.02232867 0.018911524 0.008010874 0.03904091 0.0046467297 0.033568576 0.0013345991
-0.026298996 -0.033425275 -0.00057519897 -0.026852299 -0.036280137 -0.013134384 -0.009900187 -0.026303638
0.015553188 0.01868789 0.0141449 -0.036630407 -0.024570562 0.0052195108 0.010494527 0.008988432
0.0013273645 0.033028606 -0.0049935696 0.008743269 0.009806251 -0.036906444 -0.0005943448 0.042394746
0.033440836 0.007135714 0.019340074 -0.030200655 0.00064958405 -0.019126948 -0.009095909 0.01994852
-0.027084734 0.019610185 -5.1931944e-05 -0.03751654 0.034007818 -0.043414723 -0.0051050237 -0.02302485
0.021511089 -0.039090343 0.010367428 -0.036381237 0.033383306 -0.00530994 0.010027492 -0.005301425
-0.025851944 -0.029847834 0.037162032 0.00130671 -0.0071434826 -0.008465712 0.03338888 0.031210508
0.021150954 0.0069507593 0.010301087 -0.034032885 -0.0017902347 -0.006778314 0.029016845 0.035184503
0.024129495 0.018908774 0.013053116 -0.023691488 -0.001232192 0.003170903 -0.015378008 0.016357545
-0.0424664 -0.026009815 -0.021889407 -0.038300093 -0.009037568 -0.019158658 0.030825457 -0.02828245
-0.017321125 0.022973051 0.029130915 -0.028729782 -0.0055599264 -0.01367731 0.033161692 -0.022788454
-0.014975489 -0.013470231 0.016329275 0.020897688 -0.03226914 0.001293811 0.021605238 0.037017398
0.010612028 -0.032658786 0.005026908 -0.014286034 -0.008220853 -0.019584147 0.028867977 -0.012454686
-0.034733318 0.024003312 0.039428692 0.03651279 -0.017904598 -0.035161518 -0.008224863 0.013899913
0.034744807 -0.00086856895 0.005322747 0.01852628 -0.0030214041 0.019189145 -0.025170932 0.011274635
-0.01311427 -0.028150313 0.022149054 -0.012623513 0.036960576 0.007844049 -0.013015911 0.002508521
-0.032652415 -0.0013538742 0.0005719938 0.0187863 0.0076981704 0.0008710782 -0.035770025 -0.03807977
-0.036203932 -0.012001577 0.029142806 -0.012483877 0.019959066 -0.020482728 -0.008644802 -0.02731021
00000000: f37c 093d 558c 08bd d846 0dbd 791a b73c
00000010: e130 803b 34d3 1cbd bdeb 05bd f884 103d
00000020: 2db4 dabc 06a9 28bd 5501 0abc 0d34 e0bb
00000030: a96b de3c cb96 ab39 4e19 78bc 2f7c 18bd
00000040: 4e39 e83c b6bb 7b3b df46 8d3c 63ab 0fbd
00000050: a1e5 93bc ea1e fc3c 478c 1fbd c50a 00ba
00000060: 486a 803c fe1e bfbb fb79 003d edc5 fcbb
00000070: d5e5 033d 1ea3 7abc fd47 d23c ef8a 87bc
00000080: eb70 37bd 0ddc 56bb a165 6bbb 09ca de3c
00000090: d0ef 083d 5a8d dc3c fdc2 fd3c 06ba a3bc
000000a0: 02cc f63c 5636 9d3c 12d3 b6bc 2276 db3c
000000b0: c1b7 31bc 68c3 06bd b7ec ccbb 822e 44bc
000000c0: 1016 a4bc e83f 0d3d c699 0a3d 664d 03bc
000000d0: 42cf f43c 0991 e7bc 785e 323d 4343 b63b
000000e0: 0773 1c3d 32eb 24bd 1220 5c3c 8472 bb3c
000000f0: a0e6 9abc b0b4 efbc 2e9c 1bbd 3676 993c
00000100: 0e70 143c 1844 0f3d 3398 8fbc 167b 523a
00000110: 5f88 c9bc b0c6 523c da5a aa3c e66f f7bb
00000120: c295 193d d1c7 fabc 3e4b 0abd 37c2 fb3c
00000130: df9a b8bc 4b4b 7b3c 1209 ca3c 1f58 b33c
00000140: 948e 27bd 4c76 24bc c236 2a3d 0306 98bc
00000150: 7582 273d 1611 d73c ac95 333c 9d27 98bc
00000160: f228 cabc dd8a 973c bc56 a7bc 416f 703c
00000170: a0eb 0a3d 946b 31bd c888 f73c ac8e bf38
00000180: 61be 20bc 0da5 333d 652e 483b 275c 203d
00000190: b282 053d 809e 1ebd b726 aebc 92f5 f43c
000001a0: a616 28bd 9dea b6bc 57ec 9a3c 0a40 033c
000001b0: 5ce9 1f3d 9843 983b 347f 093d b7ed ae3a
000001c0: fe70 d7bc f1e8 08bd f3c8 16ba 5af9 dbbc
000001d0: 7b9a 14bd 9931 57bc 6534 22bc ba7a d7bc
000001e0: ccd2 7e3c 5917 993c 03c0 673c c409 16bd
000001f0: 3448 c9bc 6e08 ab3b 3df1 2b3c 3744 133c
00000200: f6fa ad3a 0149 073d 19a1 a3bb ee3f 0f3c
00000210: 66aa 203c 362b 17bd cecd 1bba 1da6 2d3d
00000220: 42f9 083d b5d2 e93b 136f 9e3c 5d67 f7bc
00000230: d948 2a3a 1eb0 9cbc 0207 15bc 146b a33c
00000240: cee0 ddbc 8aa5 a03c 80d1 59b8 f2aa 19bd
00000250: c84b 0b3d a3d3 31bd 0b48 a7bb 9c9e bcbc
00000260: 0638 b03c 321d 20bd 25dc 293c 7e04 15bd
00000270: efbc 083d 01ff adbb 5a4a 243c 93b7 adbb
00000280: 75c7 d3bc 7283 f4bc 3737 183d e945 ab3a
00000290: e013 eabb c5b3 0abc c7c2 083d 2ead ff3c
000002a0: c444 ad3c 32c3 e33b e4c5 283c 1166 0bbd
000002b0: 4fa6 eaba 9e1c debb bcb4 ed3c a01d 103d
000002c0: 38ab c53c 93e6 9a3c bddc 553c a714 c2bc
000002d0: 8181 a1ba edce 4f3b 0af4 7bbc 4200 863c
000002e0: 3ff1 2dbd 8912 d5bc 6a51 b3bc 8fe0 1cbd
000002f0: 4f12 14bc 9ef2 9cbc ab85 fc3c 99b0 e7bc
00000300: 08e5 8dbc fb31 bc3c f5a3 ee3c b85a ebbc
00000310: 0b30 b6bb cc16 60bc 8ed4 073d daae babc
00000320: c15b 75bc 3eb2 5cbc f9c4 853c a131 ab3c
00000330: a52c 04bd 1895 a93a 78fd b03c 8e9f 173d
00000340: 12de 2d3c 38c5 05bd c3b8 a43b f80f 6abc
00000350: c2b0 06bc ef6e a0bc 897c ec3c bd0e 4cbc
00000360: 8644 0ebd 98a2 c43c fb7f 213d 6f8e 153d
00000370: aaac 92bc 8605 10bd 93c1 06bc 76bc 633c
00000380: 9250 0e3d adb0 63ba 706a ae3b 6dc4 973c
00000390: c002 46bb 8e32 9d3c 4533 cebc 3fb9 383c
000003a0: 3cdd 56bc 7c9b e6bc ef71 b53c dad2 4ebc
000003b0: f963 173d 5384 003c b040 55bc 0066 243b
000003c0: 8abe 05bd 7b74 b1ba dbf1 153a bae5 993c
000003d0: ef40 fc3b 1259 643a 9783 12bd 88f9 1bbd
000003e0: 934a 14bd 43a2 44bc e5bc ee3c 2d89 4cbc
000003f0: 3281 a33c 65cb a7bc eda2 0dbc a9b9 dfbc

fc.weight f4 [2, 128]
-0.032144357 0.05116647 0.06936472 0.0045586177 -0.004965939 -0.077382855 -0.06471626 0.0601987
-0.07660356 -0.08773994 -0.053825896 0.0041121356 0.05621054 -0.044415157 -0.04038074 0.09004329
0.02801762 0.073331624 -0.05110262 -0.039682183 0.0708539 -0.0010179814 0.061850082 0.08679365
0.026792385 0.085275605 -0.08518631 -0.05441359 -0.08403735 -0.026547024 -0.013063661 0.03771005
0.057636462 -0.06387399 -0.040040705 -0.0027890005 -0.0266427 -0.06775157 0.014797774 0.044473343
-0.068022475 0.049456656 0.06779569 0.014630464 -0.05772792 -0.072218135 -0.008376443 0.079979554
-0.04055248 -0.027065154 0.060262024 0.011761673 0.039987233 0.069750786 -0.028367478 0.0013431611
-0.08449872 0.08884162 0.07358298 0.019023957 0.061384905 -0.00793666 -0.015898217 -0.00058590225
0.04283458 -0.0017242208 0.028873255 0.057693865 0.026289815 0.056307495 -0.015184575 0.09297971
-0.064214714 0.033523127 -0.0038720502 -0.015262372 0.025987243 -0.0020737129 -0.071587816 0.044271577
-0.0245308 -0.04949981 -0.084938884 -0.057217084 -0.021138715 0.017669953 -0.07921415 0.049994953
-0.05837738 -0.05749861 0.025585303 0.053000934 0.005805049 -0.050082 0.07248429 0.049132567
0.07230101 -0.013919901 -0.058255244 -0.020701336 0.072084285 0.020902762 -0.023262428 -0.07979691
-0.0127031775 0.046870697 0.004531596 -0.0752903 0.046885967 -0.033670336 0.06027698 0.055492822
0.025815625 0.015881738 -0.05634435 0.04963326 -0.08509943 0.07383128 -0.08109937 -0.044183597
-0.065871574 -0.054158177 -0.08992476 -0.0058751064 -0.011968542 0.041810796 0.022426087 0.02984455
-0.0019002603 -0.05787022 -0.02975731 0.021595335 -0.07332257 0.0395535 -0.020616082 0.028918404
-0.04366934 0.0010467595 -0.007366368 -0.04935832 -0.07055025 0.08351841 0.02187257 -0.041533973
0.045582153 -0.059190687 -0.016024163 0.0015666357 -0.0070205056 -0.011580555 -0.06520344 -0.01338992
0.036870904 0.033027124 -0.040179648 -0.0027015007 -0.076506376 0.031167941 -0.0024074784 0.03470163
0.060029708 0.07248019 0.029126102 -0.049777407 0.00058853184 0.009752599 0.053565804 0.06627572
0.06331936 -0.07799577 0.023695305 0.079086356 -0.05029095 -0.09442846 0.018196044 -0.070546836
0.04547799 -0.080615684 0.05735789 0.028617147 -0.0095792245 0.025900675 0.071751334 0.04653068
0.08118272 0.021956716 -0.033517506 -0.049093813 -0.047546316 -0.08737206 -0.063043706 0.0679398
0.02816832 -0.058527876 0.042853232 0.010641193 -0.021562105 -0.08215917 -0.07773512 -0.039451852
-0.087647974 0.014546992 0.018560369 -0.044057608 0.058682233 0.031747553 0.066788614 0.018737294
-0.08140428 0.0035719057 0.024804024 -0.048759367 -0.08292288 0.041464623 -0.01563797 0.0364372
-0.004364129 0.028144455 0.08385993 -0.0058607445 0.02515134 -0.063431524 -0.024499904 -0.051944625
0.046531003 0.05654256 -0.041812953 0.01870783 0.021434981 -0.0105252275 0.090077065 0.08255317
0.014493724 0.06650477 -0.0012028697 0.0028619505 -0.0018891202 0.0022899676 0.043569066 0.04051809
-0.022180596 -0.06890254 0.021248523 0.012935798 0.025136156 0.050876547 -0.089546084 -0.05367875
0.031634383 0.058338817 0.06957543 0.031691793 0.036462117 -0.038233653 0.06798368 0.05532992
00000000: cda9 03bd ef93 513d 170f 8e3d 7560 953b
00000010: 51b9 a2bb e77a 9ebd f589 84bd e992 763d
00000020: 54e2 9cbd ffb0 b3bd 8b78 5cbd 18bf 863b
00000030: 063d 663d abec 35bd 4666 25bd 9e68 b83d
00000040: 3585 e53c e42e 963d fb50 51bd c989 22bd
00000050: d91b 913d ca6d 85ba 8356 7d3d dfc0 b13d
00000060: b47b db3c faa4 ae3d 2976 aebd c9e0 5ebd
00000070: c61b acbd 2579 d9bc f708 56bc da75 1a3d
00000080: 3614 6c3d 5ed0 82bd b901 24bd aac7 36bb
00000090: cb41 dabc 56c1 8abd 5d72 723c ae29 363d
000000a0: 5e4f 8bbd 1093 4a3d 77d8 8a3d 9db4 6f3c
000000b0: 1d74 6cbd 1ae7 93bd 593d 09bc 52cc a33d
000000c0: 5b1a 26bd beb7 ddbc 50d5 763d 08b4 403c
000000d0: a7c9 233d 80d9 8e3d ea62 e8bc 020d b03a
000000e0: aa0d adbd 98f2 b53d acb2 963d 21d8 9b3c
000000f0: bd6e 7b3d c408 02bc fa3c 82bc 3c97 19ba
00000100: 5073 2f3d 40ff e1ba 9b87 ec3c 6750 6c3d
00000110: bd5d d73c b0a2 663d b9c8 78bc 256c be3d
00000120: 0183 83bd 8c4f 093d 39c2 7dbb 070f 7abc
00000130: 33e3 d43c 21e7 07bb a29c 92bd 1d56 353d
00000140: d1f4 c8bc 50c0 4abd 70f4 adbd 765c 6abd
00000150: 192b adbc 94c0 903c 073b a2bd 82c7 4c3d
00000160: 1f1d 6fbd aa83 6bbd 4598 d13c 8217 593d
00000170: 4838 be3b c922 4dbd a572 943d 3b3f 493d
00000180: 8d12 943d 4c10 64bc 0d9d 6ebd d995 a9bc
00000190: eda0 933d 453c ab3c d990 bebc 906c a3bd
000001a0: fd20 50bc 7dfb 3f3d c87d 943b cd31 9abd
000001b0: 800b 403d e8e9 09bd ffe4 763d 714c 633d
000001c0: 4a7b d33c 6b1a 823c 55c9 66bd 3f4c 4b3d
000001d0: 9c48 aebd db34 973d 6d17 a6bd dcf9 34bd
000001e0: ade7 86bd f7d4 5dbd 792a b8bd f783 c0bb
000001f0: b417 44bc cc41 2b3d eab6 b73c 8f7c f43c
00000200: 2812 f9ba 5309 6dbd 9ac5 f3bc b3e8 b03c
00000210: 252a 96bd da02 223d 0fe3 a8bc 4ae6 ec3c
00000220: 9fde 32bd 6c33 893a 9361 f1bb f32b 4abd
00000230: a67c 90bd b30b ab3d 1b2e b33c 871f 2abd
00000240: 5ab4 3a3d ef71 72bd 1b45 83bc 9257 cd3a
00000250: 450c e6bb 5ebc 3dbc 6289 85bd 6561 5bbc
00000260: f205 173d 7347 073d 6a93 24bd a90b 31bb
00000270: 60af 9cbd e953 ff3c c9c6 1dbb 4c23 0e3d
00000280: b6e1 753d 7e70 943d dd99 ee3c 65e3 4bbd
00000290: b447 1a3a 5dc9 1f3c d167 5b3d 91bb 873d
000002a0: 95ad 813d 3fbc 9fbd a81c c23c 07f8 a13d
000002b0: e2fd 4dbd b563 c1bd df0f 953c dc7a 90bd
000002c0: 2147 3a3d d619 a5bd 1bf0 6a3d 826e ea3c
000002d0: 2ef2 1cbc a72d d43c 5df2 923d f496 3e3d
000002e0: 2043 a63d 92de b33c a749 09bd 9816 49bd
000002f0: edbf 42bd 1ff0 b2bd 0f1d 81bd 0624 8b3d
00000300: 40c1 e63c edba 6fbd df86 2f3d 6658 2e3c
00000310: 03a3 b0bc 1143 a8bd 9733 9fbd 4498 21bd
00000320: c880 b3bd 8256 6e3c ea0b 983c c075 34bd
00000330: c85c 703d b909 023d 78c8 883d f47e 993c
00000340: 4ab7 a6bd a216 6a3b cf31 cb3c e7b7 47bd
00000350: 79d3 a9bd cfd6 293d 331b 80bc 2c3f 153d
00000360: f800 8fbb 338f e63c c1be ab3d 7d0b c0bb
00000370: 2f0a ce3c 63e8 81bd 06b4 c8bc e3c3 54bd
00000380: 4b97 3e3d 2c99 673d 0f44 2bbd 2a41 993c
00000390: 6a98 af3c 0172 2cbc 537a b83d a311 a93d
000003a0: 1677 6d3c a733 883d 9ca9 9dba 908f 3b3b
000003b0: 5b9c f7ba 4813 163b 7a75 323d 4cf6 253d
000003c0: 15b4 b5bc c61c 8dbd 6211 ae3c abf0 533c
000003d0: 57ea cd3c ed63 503d f063 b7bd 40de 5bbd
000003e0: 0e93 013d aff4 6e3d 907d 8e3d 41cf 013d
000003f0: 4d59 153d e49a 1cbd 073b 8b3d a0a1 623d

fc.bias f4 [2]
-0.020396534 0.013554403
00000000: a216 a7bc 4913 5e3c
